model/model.pth (torch, 18176 bytes, 4 tensors)

weight f4 [256, 11]
00000000: 7ce4 4f3e f72d b1be b95e 613d 8feb 0cbe
00000010: dfc4 a53c f926 bcbe 5d74 2d3d ca05 a93c
00000020: 82a3 e0be 06dd bfbd 92d1 1cbe 1aeb 7f3d
00000030: 36dc 33bd 848f 0d3e fcf2 9bbd cbab 3bbe
00000040: 567c 963d eaaa bcbd d1ae 7dbe 77f1 82be
00000050: b9ca 87be a873 babe 1d1a b83d fd4a 4bbe
00000060: 5aaf 36be 677b 273e d007 723d e09a fbbd
00000070: 11f4 9abc f050 923e 2fff 823d f5ee cdbe
00000080: 043a 6bbe 7c6f 42be 767e 42be a311 98bc
00000090: 1a5e 053c f9a4 273e 8cc4 a2bd bf08 b7bd
000000a0: 10ca 4fbe 3ed8 30be db63 eebd e93c 4fbe
000000b0: 53dd 12be f56f 3b3f cbf4 0c3e ed53 30be
000000c0: e4b2 11be cb3b d7be 190d a5be 712f 23be
000000d0: 4860 9dbe 8549 34be 0a6d 87bc 3d33 433f
000000e0: 209f d83e d284 1fbd eb14 133e 3dfb c23e
000000f0: 0a11 3d3d 9c7b 043f e620 74be 56f5 1bbe
00000100: 5f20 653e 2f4a 96be c91b c3bd 2e66 ca3d
00000110: 3a35 18be e79e 423d 1c86 bebd 58d9 fd3a
00000120: 7d7d dc3d ca29 72be 7937 c5ba 5e6e 08be
00000130: e208 9dbd 4800 533d 9441 0bbe 5126 5d3e
00000140: d1ea 483e 91b4 85bd 72f5 96be b002 c1bd
00000150: 0fc9 b7be 7a15 abbe 0c2e bb3d d391 d3be
00000160: 5d1e d6bd ec44 553d cd96 9f3d 6446 b53d
00000170: 7176 05be b0a1 05bd 100b 88be be35 d7be
00000180: 0da2 d3bd 3210 3dbe 3c2c f7bc 4b9e 21bd
00000190: 5608 633e 4375 61bc b2bc 723e 2783 33b9
000001a0: 2489 2f3e 3d10 61be b331 b9bd faef 013d
000001b0: cab7 43be df69 18bd fd88 11bf 2f59 d43e
000001c0: d3e5 d7bd 13e7 5cbe 6a38 57be d779 f93e
000001d0: f186 cbbe 2389 18bc 6d7f 703e 9783 a43e
000001e0: fa50 3dbe f86d d3be a171 9abe 01cf 853b
000001f0: 44d9 753e 8838 183d 4c28 e5bc c733 d6bd
00000200: 41ff 333e df82 47be d520 f3bd 56d4 96be
00000210: d9ea 5fbd 3ae9 83be c7dc 2f3e 6df8 093d
00000220: 9005 41be e6af c0bd 2662 873d 56b0 a23d
00000230: 568e 30bb 2de4 74be 566f 91be 542f 06bf
00000240: 47ea 443d f61f 993e a224 633d e413 f7bd
00000250: 8e28 6dbe 6625 233e ed1b b5be c9d3 45bd
00000260: 1436 60be 48e3 313d fac8 2b3f ca99 e9be
00000270: 1b95 393f d76e a9bc 2779 ae3d 21d7 833e
00000280: bf0a c9bc a8c8 dcbe 3f25 8dbe ce30 3c3d
00000290: 0529 063f e50d 03be 984b 143c 510c f33d
000002a0: 21b7 e43d 249a 02be ef17 97be 81d8 a23d
000002b0: efa6 40be e606 89be 74b5 b4bd 4d2d 91be
000002c0: cf51 89bc 7f9c 1fbe dfc2 6abe 5f98 313d
000002d0: fb3e 48bd 8353 afbc 430a 9a3d 281b 7ebe
000002e0: f3ac 84bd fb1b 173e 8e2a b8bd e62f 2b3e
000002f0: fcd7 64bd d829 7fbd c46a c53c 1465 eabd
00000300: f009 803e 9dd0 e33d f6d8 f53e 4e1d 1dbf
00000310: 6080 05bf 57fb 123e 575e 893d f990 88be
00000320: a9a7 573e 8142 4a3d e412 703e 80db 31be
00000330: a8ba 2a3e 4bd1 c5be 1155 8ebe 5701 95be
00000340: 7930 ddbc 1be1 0dbe 1372 60bd bb6f 87bd
00000350: a5f5 e6bc 15b0 abbe b3af bebc c27b 01be
00000360: 7824 15bd c21c 9cbd 5968 9cbe e86b b4be
00000370: 34d0 3dbe dd51 ca3e f011 f93e bac4 713d
00000380: e784 673e 83c0 263e c2e7 8ebd 4657 d9be
00000390: 31e4 353e 6cb7 32bd c65e eb3e 0e09 e9bd
000003a0: 5809 e7bc 5d39 7dbe a10d 83be 7d22 35be
000003b0: f80a 37be ad89 90be addf c6be 2109 80be
000003c0: 9559 6ebd d022 ccbd a662 34bd 08ef 39bd
000003d0: db9b 623e 0e9f 583e 5d1a d43c c3d3 453d
000003e0: 5095 43bd d8bd dbbe 93b7 8cbe 9a67 90be
000003f0: ef18 78be 70c0 113d 49fe 2abe 45be 8e3c
0.20302004 -0.3460538 0.055021975 -0.13761733 0.020235477 -0.36748484 0.0423473 0.020632643
-0.43874747 -0.09368329 -0.1531432 0.06248007 -0.04391118 0.13824278 -0.07614705 -0.18327253
0.07347934 -0.09212287 -0.24773718 -0.25574848 -0.26521853 -0.36416364 0.08989356 -0.19852825
-0.17840329 0.16355668 0.05908948 -0.122853994 -0.018915208 0.28577375 0.06396329 -0.40221372
-0.2297135 -0.1898784 -0.18993554 -0.018563097 0.008140111 0.16371526 -0.079476446 -0.08937215
-0.20291924 -0.1726999 -0.1164014 -0.20238079 -0.14342241 0.7321771 0.13765256 -0.17219515
-0.14228398 -0.42037806 -0.32236555 -0.15936066 -0.3073752 -0.1760617 -0.016531486 0.7625006
0.42308903 -0.038945027 0.14363448 0.38082305 0.046158828 0.5175111 -0.23840675 -0.15230307
0.2237563 -0.29353473 -0.09526784 0.098827705 -0.14864054 0.047514822 -0.09302923 0.0019367142
0.107661225 -0.23648754 -0.0015046439 -0.13323352 -0.0766771 0.05151394 -0.13599235 0.21596648
0.19620825 -0.06528581 -0.29484135 -0.09424341 -0.35895583 -0.33414823 0.09139642 -0.41322193
-0.1045501 0.052067682 0.07792435 0.088513166 -0.13033463 -0.0326249 -0.2657094 -0.4203319
-0.10333643 -0.1846321 -0.03017246 -0.0394576 0.22171149 -0.0137608675 0.23704794 -0.00017119628
0.17142159 -0.2197885 -0.090426825 0.031723 -0.19113079 -0.03721034 -0.5684965 0.41474292
-0.10541882 -0.21572523 -0.21017614 0.4872577 -0.3975139 -0.00931004 0.23486109 0.32131645
-0.18487921 -0.41294837 -0.30164817 0.0040835147 0.24008662 0.037163287 -0.027973317 -0.104590945
0.1757784 -0.19483517 -0.118714966 -0.29458874 -0.054667328 -0.25763875 0.17174064 0.033684183
-0.18849778 -0.0940855 0.06610517 0.0794379 -0.0026940308 -0.23915167 -0.28405255 -0.52415967
0.048074987 0.29907197 0.055454858 -0.12064341 -0.23160002 0.15932235 -0.35372868 -0.048297677
-0.21895629 0.043429643 0.6710354 -0.45625144 0.7249314 -0.020682735 0.08519202 0.25750068
-0.024541257 -0.4312184 -0.2756748 0.04594498 0.5240634 -0.12798269 0.009051226 0.118675835
0.111677416 -0.12754112 -0.29510447 0.07951451 -0.1881368 -0.26763076 -0.08823672 -0.28354874
-0.016762642 -0.15587042 -0.229259 0.043358203 -0.048888188 -0.021402126 0.075214885 -0.24815047
-0.064783 0.14756767 -0.08992492 0.1671749 -0.05587004 -0.062295765 0.024098761 -0.1144506
0.25007582 0.11123774 0.4801709 -0.6137284 -0.5214901 0.14353691 0.06707447 -0.26673105
0.21060051 0.04937983 0.23444706 -0.17368889 0.16672766 -0.3863624 -0.27799276 -0.29102585
-0.027000653 -0.13855402 -0.05479629 -0.06613108 -0.028193304 -0.33532777 -0.02327714 -0.12644866
-0.036411732 -0.076226726 -0.3054836 -0.35238576 -0.18536454 0.39515582 0.48646498 0.059025504
0.22609292 0.16284375 -0.06977798 -0.42449397 0.1776283 -0.043631956 0.45970744 -0.1137868
-0.028202698 -0.24728914 -0.25596336 -0.17688937 -0.17875278 -0.28230038 -0.38842526 -0.25006965
-0.0581909 -0.099675775 -0.04403939 -0.045393974 0.22129767 0.21154425 0.025891477 0.048297655
-0.047749817 -0.42918277 -0.27483806 -0.28204042 -0.24228261 0.035583913 -0.16698565 0.017424712

bias f4 [256]
00000000: 1ea4 19be 6f4e c83a dd51 52be 79a7 03bf
00000010: e619 aebc 02c0 833d d3b9 cdbe 02c3 2abe
00000020: d82c b0bd 7092 a0be 8726 52be e99b 05be
00000030: d890 a0be 1e64 9abe ca49 4a3c 0c02 8dbd
00000040: 5628 88be d317 2f3d 4720 193c dd87 8abd
00000050: ca8b 2d3e 6bc8 22bf 70e9 333d a0e3 1cbe
00000060: 210c b3be bd47 d8be 800b 9bbd cd58 073e
00000070: 0d80 5bbe e240 68bd e3e6 0cbe 0f02 e2be
00000080: 6242 cdbe f283 d33d e5e6 d4be 869d 8dbe
00000090: 6c8c 1fbd 0b12 1d3d 0800 7fbd 88b5 f23d
000000a0: d6f4 e8be 350f fcbe 1514 0f3d 13ad b0bd
000000b0: 02c8 a9be 3f01 30be 4091 adbd 09c8 49bd
000000c0: 29aa 07be 61f2 5ebe 9cb6 aabe 8f41 89be
000000d0: 34b0 8abe c4cb abbe c9c8 c6be 9c53 81be
000000e0: 3eaf 8ebe a200 b7be 8672 15be f246 28be
000000f0: 39d4 aebe 716c 9cbe cbdf acbe d64b 53be
00000100: 1124 97be aa34 933e 5460 b1be 6d99 41be
00000110: a058 73be 2b42 cabe a31f b2be 4134 b4bd
00000120: 2585 8fbe a628 c9be 0136 173e 5dab 92be
00000130: d8af aabd 2875 193e 71b3 46be af65 8abe
00000140: 9b16 efbd 69dd 6bbd 2456 e1be 9a2a 80be
00000150: d9de c3bd 8425 463c a34f 75be 5c1a bcbe
00000160: 6b95 bebe c506 78be 41d0 d1be 23d8 6fbe
00000170: ec0c debd 4310 6bbd c982 e4bd ed11 bdbb
00000180: 472b 74be ee71 6ebe 06fb 363d 63b0 a1be
00000190: 6e03 4bbe 4226 0abe c4dc 8c3e cc84 3cbe
000001a0: 9f73 8d3d 4ddc 47be 7e0a a9bd 88bf 87be
000001b0: a19d 0dbe 5147 453e 5ec9 e2be 8e81 27be
000001c0: 4d84 aa3c b0d5 02bf 653b d0be 9195 95be
000001d0: 727b d7bd c944 a5be e411 cabe 11f2 70be
000001e0: 8586 a8be 1e90 93be 3d00 0abe de96 31be
000001f0: 2bdc c0be a180 e5bd 9fbc 343f d285 50be
00000200: aa09 94be 4635 0abe dbc6 fabd 4881 e8be
00000210: 1084 bebd 3981 21be 6e6c c7be 19fc a0be
00000220: aa4c abbd 3d1a 89be 7ef6 31be 2bd3 6cbd
00000230: ae15 9dbe a8b7 47be a0da 2e3e 840e a9be
00000240: 13f0 5ebe 1efa b2bd 94e8 dcbe 8555 9ebe
00000250: 0b1f 88be 50e5 c7be 39c2 77be 50ae 90bd
00000260: 37ea 78be d0a4 12bd 1530 4fbe 75e0 8abe
00000270: 59a1 84be c756 d4bd 792b 16be c738 2bbe
00000280: 40f1 86be c9ea 0bbe bb4f 93be 28f5 d5be
00000290: a557 22bd b119 e9bc 2fbe a1be 0e04 26be
000002a0: 62ad 3ebe 52e3 01bf ef34 4fbd 3651 0bbe
000002b0: 4382 fabe 5b73 78bc 8cd4 9fbe 582d 2a3f
000002c0: c5fa ecbe b06e 33be d1a8 b2bd a485 9bbe
000002d0: 3eb9 7ebe 11e3 8dbd 5b95 1bbe a66e 12be
000002e0: 90dc fd3d abde 09bf 591f 76be b0ce 8abd
000002f0: faab 61be e450 f0bd 6f1f f5be ce55 6bbe
00000300: ce09 a2bd a349 613e f6d8 9abe 8bc0 c7be
00000310: b72f 9a3d 11e2 aabe 8489 83bd f34a fdbd
00000320: b913 083e 7d26 95be 8385 abbe 00eb 5bbc
00000330: 261a 28be e1b4 203d 0a54 173d af7e 91be
00000340: bbec 17be dfa9 9ebe 8bf0 1fbe 062a e0be
00000350: 6773 c9bc e53e efbd 8012 c83d 5795 90be
00000360: e1df 2fbe aa82 76be 652d 9ebb b610 853c
00000370: 7aee c0be 772a 073d 9524 b8bd 3da3 8ebd
00000380: f30e 04bc f6c6 57be 2a23 003f b880 1dbf
00000390: 5bdc 2dbe 7627 97be 24d1 c4be a4d7 adbe
000003a0: 1aae 35be f21a 1fbe d95b d0be 9a3e b7be
000003b0: d1d9 e8bd 1dbc e8be af35 83be d575 b2be
000003c0: ce32 fbbd 9773 bebb 15b3 8dbd 8cef 213c
000003d0: 1096 e43d 6dbc 8fbe 7ffa 56be b326 f53d
000003e0: c952 4abe 732e c4be 7096 98be 52ec 6fbe
000003f0: f69a a8be 887f c6be 6b92 09bd d53c d4be
-0.15004012 0.0015282164 -0.20539041 -0.5142742 -0.021252584 0.06433107 -0.40180835 -0.16675952
-0.08602303 -0.31361723 -0.2052251 -0.13047756 -0.31360507 -0.30154508 0.012346694 -0.06885156
-0.26593274 0.04274733 0.009346074 -0.06764195 0.16947857 -0.63587064 0.043923795 -0.15321207
-0.3497019 -0.42242232 -0.07570553 0.13217469 -0.21435566 -0.056702502 -0.13759951 -0.44142196
-0.4008971 0.10327901 -0.4158241 -0.27659243 -0.038952276 0.038347285 -0.06225589 0.118510306
-0.45499295 -0.49230352 0.03493126 -0.08626761 -0.33160406 -0.17187975 -0.0847497 -0.049263034
-0.13248505 -0.21772148 -0.33342445 -0.2680783 -0.27087557 -0.33553898 -0.38825062 -0.252591
-0.27868074 -0.3574267 -0.14594468 -0.16433313 -0.34146288 -0.30551484 -0.3376449 -0.20634398
-0.29519704 0.28751117 -0.34643805 -0.18906184 -0.23764277 -0.39503607 -0.34789762 -0.08799029
-0.2803127 -0.39288825 0.14766695 -0.28646365 -0.08334321 0.14986098 -0.19404389 -0.27030703
-0.116742335 -0.0575842 -0.44011033 -0.25032502 -0.09563989 0.012093905 -0.2395616 -0.3673886
-0.37223372 -0.24221332 -0.40979198 -0.23422293 -0.108423084 -0.057388555 -0.11157758 -0.005769959
-0.23844634 -0.23285648 0.04467299 -0.31579885 -0.19825527 -0.13491157 0.2751218 -0.18410033
0.069068186 -0.19517632 -0.08253954 -0.26513314 -0.13829662 0.19265486 -0.44294256 -0.16358015
0.020815039 -0.5110731 -0.40670314 -0.29215673 -0.10521592 -0.3227904 -0.39466774 -0.23529841
-0.3291513 -0.2882089 -0.13476653 -0.17342708 -0.37667975 -0.11206175 0.7060031 -0.20363548
-0.28913623 -0.13496885 -0.1224496 -0.45411134 -0.09302533 -0.15771951 -0.38949913 -0.31442335
-0.08364232 -0.2677783 -0.17379186 -0.057818573 -0.30680603 -0.19503653 0.17075586 -0.33018887
-0.21771269 -0.08739112 -0.43146193 -0.3092462 -0.26586184 -0.3904214 -0.24195184 -0.070644975
-0.24308096 -0.03580171 -0.20233186 -0.27124372 -0.25904348 -0.10368114 -0.14665021 -0.16720878
-0.26355934 -0.13663782 -0.28771767 -0.41788602 -0.039634366 -0.028454633 -0.3159041 -0.16212484
-0.18620828 -0.5073749 -0.05058759 -0.13605198 -0.48927507 -0.015164222 -0.31216848 0.6647544
-0.46285072 -0.17522693 -0.087236054 -0.30375397 -0.24875352 -0.06928075 -0.15193693 -0.14300022
0.123955846 -0.5385539 -0.24035396 -0.06777704 -0.2203826 -0.11734179 -0.47875544 -0.2298195
-0.07912026 0.22000746 -0.30243653 -0.39014086 0.07528632 -0.333756 -0.064227134 -0.12367811
0.13288774 -0.29130927 -0.335003 -0.013422728 -0.16416225 0.039235 0.03694538 -0.28416964
-0.148364 -0.30988976 -0.15619104 -0.4378206 -0.024591161 -0.11681918 0.097691536 -0.28238937
-0.17175247 -0.24073282 -0.004827189 0.01624332 -0.37681943 0.032999482 -0.089913525 -0.06964729
-0.008060205 -0.21071991 0.50053656 -0.61524534 -0.1697859 -0.29522294 -0.38440812 -0.33953583
-0.17742196 -0.15537623 -0.40695074 -0.3578995 -0.1136967 -0.4545602 -0.25626895 -0.34855524
-0.122655496 -0.005812119 -0.06918923 0.009883773 0.11161435 -0.28073445 -0.20993994 0.11970272
-0.19758143 -0.38316688 -0.29802275 -0.23429993 -0.32930726 -0.38769174 -0.0335869 -0.4145266

weight f4 [3, 256]
00000000: 41af d63a 8363 eabd de6d cb3c 8e82 1d3e
00000010: ed67 13bd 4fb9 13be 0c57 d5bc 6115 64be
00000020: ad07 e5bb 5885 173c 32a9 c33e 61b3 67bc
00000030: b1e0 bc3b ac43 fabd ed62 95be 90a5 0ebd
00000040: 194f 093d 0447 8bbe 35a7 26bd 0efa 8f3d
00000050: c578 40bd 2b0d 363e 6f75 7ebd 79e6 53bd
00000060: 8fd2 133c 2327 0abe 23aa 34be 67d4 56bd
00000070: 2215 1b3d 87e1 843d 3454 f63c 4ec7 573d
00000080: d31e 103e 4c40 88be c208 f23d 4c37 21be
00000090: 98b0 ec3d 1bc1 393c 5540 3fbd 5fdc 133d
000000a0: a689 813e 80f3 8cbd 3c06 5d3d 0ec9 ec3c
000000b0: 74ee 7f3d 6449 57bd bf0c f1be 79f6 863c
000000c0: 90bc ed3d 2de9 293c 272b 3a3e f093 723c
000000d0: 2c8c 2e3d 45ef 91bd 5e9b e2bd 7b04 69bd
000000e0: 4cac 463d f50a b1bc f7f6 bbbd 7e97 79bc
000000f0: b214 2f3e 8f5d a8bd ef5a 1abd 5951 1ebe
00000100: 92e3 1a3d 6bcd b1be a098 cf3d cec4 0dbd
00000110: 5c32 4f3d 72f6 dd3d 9d62 abbd b4c6 093d
00000120: 0222 723b 3346 2a3e 5f96 14bf 3d71 1ebd
00000130: f2de 663e 6190 32be 2c1d 603d 7469 acbc
00000140: bd52 b7be 35e0 85bd 8226 763e 5b6b fdbe
00000150: 10f8 833c 9a7a 6b3c 4db4 873d d075 c83d
00000160: 5a97 7d3d d4ce 6bbc 4201 0a3d fc2c aa3c
00000170: 004b 1ebd d520 34bd 13c2 b0bd c6e4 803b
00000180: 2256 9a3d 6654 053d 5560 4f3d 42f9 7f3d
00000190: 2335 01be 1d8f 82bd ff6a 07bf 7921 cdbc
000001a0: a727 0abd 8f72 d6be afff a2bd 384e ed3d
000001b0: 4c25 f1bc b14b c1be 233b dabd f473 50bb
000001c0: a507 8dbd fa6a 33be 3765 9bbe febe 64bc
000001d0: aabb d0be 410f c03c e2db 073c e456 5f3b
000001e0: 0ec9 90bd 1cc1 25bd 5450 c83e 7163 92bc
000001f0: fd0c 403e 07f0 65bd 7683 e0be 4128 503d
00000200: 8b4d 853c bf69 8dbd 45c8 1d3d 8ca6 883d
00000210: 8a75 3039 1ac5 75bc 0f64 99bd 6722 2abc
00000220: 9934 24bd c892 81bc 38a1 fcbc 10cb 533c
00000230: f600 0a3e 7cc6 12be c4f8 5ebd ee91 c23d
00000240: 8285 833d f443 ecbd 00fc 3f3e aaf2 6d3d
00000250: 9e52 95bd b464 91bd e08b b8bc 8004 acbc
00000260: b5d6 3fbe 46be e93c 795b 303e 9ab8 16ba
00000270: 2d6d f8bd e792 fb3c cf90 8dbe 507f e9bb
00000280: 2cef 143d cf77 ccbe a970 04be f11d 603e
00000290: 4523 963d 24cf 14bf 3a7d fcbd 720e 083e
000002a0: 4163 b4bd fcc0 8d3c d24f 9b3d f63a a33d
000002b0: 120b 213e e8ab bebd 4632 153c 73f3 d6be
000002c0: cfc4 18bc 5831 7b3c a5ee 92bd 93b1 cfbc
000002d0: fc5b 31bc 181c 40bc 2077 dbbd 404b 56bc
000002e0: c695 4fbd 99ac ad3d 40ca 70bd a194 91bd
000002f0: 2865 73be ffc9 33bc 9067 07bd 156b 7c3b
00000300: 6c60 81be 5c66 a93c 1bfa 45be 7165 983d
00000310: f06d f7be 71f1 0ebe 5c35 ad3b 6c66 95bc
00000320: c33d 42bd f0f3 94bd 158a 2c3c b27b e5be
00000330: 5dc7 e6ba 2a57 a13c ebd7 533d eff6 8bbe
00000340: 970b c4bd f405 5f3d d81c a4bd d5e8 67bd
00000350: 2d5d 4dbc a3d9 5abc eb5b 4ebd da06 2f3d
00000360: db82 fbbd 8087 7e3d db93 edbe 8570 9abd
00000370: 43a2 f1bd 9b1e cdbd c28a 863c 2d98 66be
00000380: 6553 cb3c 6876 2f3d df81 d0be f286 233d
00000390: e236 323c 981e 0cbb 9ec2 883c cd2b c23c
000003a0: 3e91 1d3e 0255 8abd f00b 573c 2282 513c
000003b0: 28f3 afbd d12b 88bd a0d0 0bbe 0ac7 5bbe
000003c0: 841f fcbd 6049 783b 54a4 24be ec1a 343c
000003d0: 3524 833e 8df5 93bc be8e 63bd f60e 133e
000003e0: 392a 0a3e 34d2 a3bd 526a 0e3c 706e 54bc
000003f0: f710 21be 1190 53bd 098a 5f3d 019d 7dbd
0.0016379134 -0.114447616 0.024832662 0.15381834 -0.035987783 -0.14426158 -0.026042484 -0.2227378
-0.0069894404 0.0092481 0.38215023 -0.014141888 0.00576409 -0.12219939 -0.29177037 -0.03482586
0.0335227 -0.27202618 -0.040686805 0.07030116 -0.046990175 0.1777846 -0.062123712 -0.051733468
0.009022369 -0.13491492 -0.17643027 -0.052448656 0.03786195 0.064883284 0.030069448 0.052680306
0.14074259 -0.26611555 0.11818077 -0.1574375 0.1155712 0.011337544 -0.04669221 0.036098834
0.2530033 -0.068823814 0.053961024 0.028904464 0.062483266 -0.052560225 -0.47080037 0.01647495
0.11608231 0.010370535 0.18180524 0.014805779 0.042614147 -0.07125715 -0.1106479 -0.05688904
0.04850416 -0.02161167 -0.09177964 -0.015233872 0.17097738 -0.0822097 -0.037684377 -0.15460719
0.037814684 -0.34727034 0.10136533 -0.034611516 0.050585136 0.10838021 -0.08368418 0.033636764
0.003694654 0.16628341 -0.5804195 -0.03868221 0.22545984 -0.17437889 0.05471532 -0.021046378
-0.35805312 -0.06536905 0.24038127 -0.49495968 0.016109496 0.014372492 0.066261865 0.09788096
0.06191192 -0.014392573 0.033692606 0.020773403 -0.038645744 -0.043976624 -0.08630767 0.003933522
0.0753596 0.03255119 0.05062898 0.06249357 -0.12617926 -0.06374953 -0.5289764 -0.025040375
-0.03372922 -0.41884276 -0.07958924 0.11587185 -0.02943673 -0.3775306 -0.10655811 -0.0031807395
-0.06886224 -0.17521277 -0.30350658 -0.013961552 -0.40768176 0.023444774 0.00829217 0.003407889
-0.07069598 -0.040467367 0.39123785 -0.017869683 0.18754955 -0.05613711 -0.43850297 0.05081964
0.016272327 -0.06904935 0.03852107 0.06672391 0.00016828455 -0.015000606 -0.07489788 -0.010384179
-0.040089224 -0.015817061 -0.030838594 0.012926832 0.13476929 -0.14333528 -0.05443646 0.0950049
0.06421949 -0.115363985 0.18748474 0.05809275 -0.072911486 -0.07099286 -0.022527635 -0.02099824
-0.18734248 0.028533112 0.17222394 -0.00057495537 -0.12130199 0.030709697 -0.27649543 -0.0071257725
0.036360905 -0.39935157 -0.12933601 0.21886422 0.07330946 -0.5812857 -0.123285726 0.1328676
-0.08807994 0.017303936 0.07583584 0.0797023 0.15726879 -0.09310132 0.009106224 -0.41982612
-0.009324267 0.015331589 -0.07174424 -0.025353229 -0.010825153 -0.011725448 -0.10716081 -0.013079464
-0.050679944 0.08480186 -0.05878663 -0.07108427 -0.23769057 -0.010973453 -0.03305775 0.0038515974
-0.25268877 0.020678692 -0.19333689 0.074412234 -0.48326063 -0.1395929 0.005285902 -0.018237315
-0.04742218 -0.0727309 0.010530968 -0.44820935 -0.0017607022 0.019694883 0.051719587 -0.27336833
-0.09572523 0.054449037 -0.08013314 -0.05661853 -0.012534422 -0.013357553 -0.05038063 0.042731144
-0.12280818 0.06214094 -0.46401867 -0.07540993 -0.11798527 -0.10015603 0.016423587 -0.22518988
0.024820039 0.04283753 -0.40724084 0.039923616 0.010877343 -0.002138054 0.016694363 0.023702526
0.15387437 -0.06754495 0.013125405 0.012787374 -0.085913 -0.06648982 -0.13653803 -0.21462646
-0.12310699 0.0037885532 -0.16078311 0.010992747 0.2561356 -0.018061424 -0.05555605 0.14361176
0.13492669 -0.079990774 0.008692341 -0.0129657835 -0.15729128 -0.051651064 0.054575 -0.06191731

bias f4 [3]
00000000: f918 57be 5695 00bf 8f23 54be
-0.2100562 -0.5022787 -0.2071669
