model/model.pth (torch, 18176 bytes, 4 tensors)

weight f4 [256, 11]
000000 c1 4b 56 be eb 52 c0 3c 49 81 90 3e b8 8e 25 bd
       -0.20927335 0.023477038 0.28223637 -0.04041931
000010 2f c8 94 be c4 ae 5d 3d 5a 0e 87 be a4 be 23 3d
       -0.29058978 0.054121748 -0.26378137 0.03997673
000020 c8 c4 a5 bd 58 91 0d be 3b 20 31 be 3c e3 21 3e
       -0.08094174 -0.13824975 -0.17297451 0.1580934
000030 4c c5 7a 3e c6 f8 44 bd f5 83 5f 3e 17 b9 99 be
       0.24489325 -0.04808881 0.21827681 -0.30024025
000040 4b 3b 97 3d ce 87 af bd dc 6e 83 3d 8c 64 78 bd
       0.07384356 -0.085708246 0.06417629 -0.060642764
000050 76 92 09 bd 4e 21 31 3e 33 3b 84 be 73 52 b7 bd
       -0.03358694 0.17297861 -0.25826415 -0.08951273
000060 7f e4 9b 3d e4 15 0c be 77 d2 8f bd 0b 15 1a 3e
       0.076119415 -0.13680226 -0.07022565 0.1504709
000070 d0 ab 3e be 59 c6 06 be 1b 63 c7 3d a9 dd 69 bc
       -0.18620229 -0.13161601 0.097357 -0.014274039
000080 ca 0a 03 bc 99 1a 95 be db 6a 39 bd 00 1c e4 bd
       -0.007998178 -0.29121855 -0.04526792 -0.11138153
000090 a2 e0 cc bd d2 d6 96 be 10 24 85 be 5a c7 51 3e
       -0.10003783 -0.2946077 -0.26004076 0.20486203
0000a0 14 66 95 3e cd ea 85 3d 6c 79 a6 3c 70 af 9f bc
       0.29179442 0.06538925 0.02032157 -0.019492835
0000b0 d5 1d 27 3d 4f fc 80 be b2 36 74 3e 2c 2b 23 3e
       0.040799934 -0.25192496 0.2384899 0.15934438
0000c0 25 9f d7 3b 7a 72 37 be e4 f2 73 3e db 86 fa 3d
       0.006580251 -0.17914763 0.23823124 0.12232753
0000d0 8e b1 ea bd 4d 07 87 be 02 67 6b be ac 3e 30 be
       -0.11459647 -0.26372758 -0.22988513 -0.17211407
0000e0 71 55 ee bd be c5 1c be 9c e5 fb bd 99 82 76 be
       -0.116373904 -0.15309808 -0.12299654 -0.24073257
0000f0 3a f6 30 3e a6 31 6a 3d 3c 78 37 3e 4b 0e 39 be
       0.17281428 0.057176255 0.1791696 -0.18071859
000100 47 b5 fd bd c2 c4 86 be 80 49 f1 bd 95 6d 90 bd
       -0.123880915 -0.2632199 -0.11781597 -0.07052151
000110 91 ff 84 be c1 91 fe 3d 03 d1 c2 be 75 2e 2d be
       -0.25976232 0.12430144 -0.38050088 -0.16912253
000120 c9 4e 0d bd e6 97 4f bd 73 54 38 be cd ab 5a 3e
       -0.034498964 -0.05068197 -0.18000965 0.213546
000130 e4 11 8f be 84 c6 39 3e ae 6d ae 3d 92 24 6b be
       -0.27943337 0.18142134 0.085170135 -0.22963169
000140 4c 30 a0 3d f2 c0 93 3e 1b 10 fc 3d 79 fe 48 be
       0.07821712 0.28858143 0.123077594 -0.19628324
000150 18 10 0e be f6 61 07 3e 9b 72 69 bc 90 35 d7 bd
       -0.13873327 0.13220963 -0.0142485155 -0.10508263
000160 fa 55 0f be 52 9d 0d 3e 12 8e fc 3d 7c 25 05 3b
       -0.13997641 0.13829544 0.12331785 0.0020316532
000170 43 15 7f 3e 10 03 72 3e 9a 3f 12 be ef da e4 bd
       0.24910454 0.23633981 -0.14282075 -0.11174571
000180 e8 1e 5f 3e f8 6a 0d be 28 06 52 3e 01 42 86 be
       0.21789134 -0.13810337 0.20510161 -0.26222232
000190 d2 c4 99 be 6f 65 32 3e 74 e0 60 3d 22 91 ba bd
       -0.30032974 0.17421506 0.054901555 -0.09109713
0001a0 fd 8c 6c be 1e 8a 94 be 63 18 2d 3e 91 9a be 3d
       -0.23100658 -0.29011625 0.16903834 0.09306825
0001b0 4e a1 63 3d 8c 16 9a be b1 10 55 be 07 0a 06 bd
       0.055573754 -0.30095327 -0.20807149 -0.032724407
0001c0 c2 b1 21 be 59 57 51 be f6 d0 2d be 80 84 0c 3d
       -0.15790465 -0.20443477 -0.16974244 0.03430605
0001d0 ee d9 d7 bd 26 24 ab 3c 1a 18 0a be cb e0 34 be
       -0.10539614 0.02089126 -0.13485757 -0.17663877
0001e0 0c dd 0a 3d df 00 62 be b6 61 f0 3d 0b 42 86 3e
       0.033902213 -0.22070645 0.11737387 0.26222262
0001f0 b8 d7 82 be 1e 65 19 3e 76 34 34 be 81 c5 0d be
       -0.25555205 0.1497998 -0.17598137 -0.13844873
000200 b6 0e bb 3c 5d d6 b9 bd d2 15 e3 bd 06 e6 c9 3b
       0.022834163 -0.0907409 -0.11088146 0.006161454
000210 87 f2 8a be 9d a1 8e be d6 53 a1 3d 5a 92 89 bd
       -0.2713816 -0.27857676 0.078773186 -0.067173675
000220 4b 4d fd bc a4 3b 09 be bb 3e f7 bd 6d 4b 8c 3e
       -0.030920645 -0.13401657 -0.12072512 0.27401295
000230 f0 6b f6 bd 3f 7f fb 3d a5 e3 80 be 70 10 b4 3d
       -0.12032306 0.1228013 -0.2517368 0.08792198
000240 6a 99 36 bd 3f a2 9f 3d 9e 20 05 bc 6b 54 84 3d
       -0.0445799 0.07794618 -0.008125452 0.06461414
000250 c2 54 66 3d be 42 6b bd 53 f6 b0 bd 2e e6 9d 3c
       0.056233175 -0.057436697 -0.086407326 0.019274797
000260 ea 9a 98 be 25 d8 8a be 77 1c 83 be e8 bf 82 bc
       -0.2980569 -0.2711803 -0.25607654 -0.015960649
000270 0a 09 1b 3e d5 65 97 3d 22 cd 81 be 82 da 2f be
       0.15140167 0.0739247 -0.25351816 -0.17173198
000280 0a c6 ef bd db fd 46 3e bd 07 aa be 59 b2 8b 3b
       -0.11707695 0.19432776 -0.3320903 0.004263204
000290 8b 9b 6e be 1a cb 94 be bd 9e 6a 3e 0a 78 14 be
       -0.23301522 -0.29061204 0.22912116 -0.14498916
0002a0 44 ff ab 3d 8d 05 02 be 9d c0 1b bd 67 2b 87 bd
       0.083982974 -0.1269743 -0.038025487 -0.06600075
0002b0 bc 68 03 be 23 76 d1 3c 34 94 95 3d ed 10 66 bc
       -0.12832922 0.025569027 0.07303658 -0.014042121
0002c0 72 80 dc 3d 49 16 22 be fd ff 58 3e 96 71 2b 3e
       0.107666865 -0.15828814 0.21191402 0.16742548
0002d0 15 a9 1e 3d 04 75 94 bd 5d e8 15 bb 82 bf be 3c
       0.038735468 -0.072488815 -0.0022874095 0.023284677
0002e0 41 b1 f9 bd d6 a5 ca bd ae 78 8e 3b e8 fd 5d be
       -0.121920116 -0.09894912 0.0043478822 -0.21678889
0002f0 52 35 35 3e fc d6 18 be 5c a7 ce bd ca ae 4b be
       0.17696121 -0.1492576 -0.10090515 -0.19890895
000300 17 f7 54 3d d5 d0 6d be ef 4f aa bd 44 02 14 bd
       0.051993456 -0.23224194 -0.083160274 -0.036134973
000310 b9 2b e3 bd 94 9f a0 bd 8f bf 1e 3e c9 02 0d be
       -0.11092324 -0.07842937 0.15502761 -0.13770594
000320 78 da e7 bc c9 48 b8 bd c3 f7 33 3e 5e 68 67 be
       -0.028302416 -0.08998258 0.17574982 -0.22598407
000330 b1 33 4b 3e 68 84 1a be 5b ea 4e be 41 eb b0 bc
       0.19843937 -0.15089571 -0.20206587 -0.021596553
000340 fd c0 c2 bd e6 e8 30 bc 6b 5f 43 3e af 84 47 3e
       -0.09509466 -0.010797715 0.19079368 0.19484209
000350 68 1e 5b be b7 bf c3 3c de 7d 07 bc d7 57 59 3e
       -0.21398318 0.023895128 -0.008269755 0.21224914
000360 2c ec ec 3c 55 b2 92 be 70 6b 5d be 9e 74 12 be
       0.02892121 -0.28651682 -0.21623015 -0.14302298
000370 d2 1b b7 bc 8d a8 94 3e 45 52 8b 3e 1e 94 2e be
       -0.022352133 0.29034844 0.27211204 -0.1704869
000380 ae e1 a1 bd ba 58 59 be a3 5c 1b be 26 64 d7 3b
       -0.07904373 -0.21225253 -0.15172057 0.006573218
000390 c4 34 3b be 6b 7f 4d 3e c4 55 d4 bd 5c d2 3e be
       -0.18281847 0.20068137 -0.10367921 -0.18634933
0003a0 21 2d 4f 3d 83 e7 8b be f7 65 06 3d 60 87 71 be
       0.050580148 -0.27325067 0.032812085 -0.23586798
0003b0 94 13 2b bc af 81 5d be 9f 9e 9c bd 53 8d bf be
       -0.0104416795 -0.21631502 -0.07647442 -0.3741251
0003c0 1c bb a1 be 45 87 0c bd 4a 6a 29 be 4a 78 70 3e
       -0.31588066 -0.03430869 -0.16544452 0.23483387
0003d0 1e 55 63 bc e7 23 06 3e 10 7c 94 3d 83 96 3f 3d
       -0.013875274 0.13099633 0.072502255 0.0467744
0003e0 0e ea 54 be c1 bb 8d be 24 c6 c8 bc ce 18 89 be
       -0.2079241 -0.27682307 -0.024508543 -0.26776737
0003f0 bb 34 80 bd 09 d5 28 3e a8 fa 0d be 7e 8b 9a 3e
       -0.062600575 0.16487516 -0.13865149 0.3018455

bias f4 [256]
000000 fe 36 91 3d 87 52 08 be d0 d8 40 3d eb 96 4e be
       0.07090567 -0.13312732 0.04708177 -0.20174758
000010 9d 92 39 be e6 82 d7 3b c4 b0 62 3c 34 e0 d2 3c
       -0.18122335 0.0065768836 0.0138360895 0.025741674
000020 ac fa 9d be a0 9f 89 be 2b d1 5a 3e 5c de 28 be
       -0.3085531 -0.26879597 0.21368854 -0.16491073
000030 07 55 2c bd 19 b5 57 be 54 a7 56 bd 9e 00 92 be
       -0.042073276 -0.21065177 -0.05240567 -0.28516096
000040 c2 46 2a be 58 03 ff 3d f7 ef 3c be 3e 6a 4a 3c
       -0.16628554 0.1245181 -0.18450914 0.012354432
000050 e3 3c 11 3c 50 73 e2 3d d1 e6 2e be d0 17 2a 3e
       0.008864614 0.1105715 -0.17080237 0.16610646
000060 67 eb e4 bd ed f0 2d bd a1 07 18 3e 79 c8 43 be
       -0.11177712 -0.042466093 0.1484666 -0.19119443
000070 30 62 82 bc 5e b8 e9 bd 48 8a ab be e2 e4 93 be
       -0.01591596 -0.114121184 -0.33503938 -0.2888556
000080 1c 11 cd bb 37 27 9d be d7 ce 48 bd d5 a8 c2 3c
       -0.006258143 -0.3069398 -0.049025383 0.023762146
000090 ac 3e 22 be 63 52 97 be 3c a6 0a be 4b aa 4d 3e
       -0.1584422 -0.29555044 -0.13539976 0.20084493
0000a0 9f 69 ec bd cc aa f5 bc cc 07 07 3c 66 2d 9c bd
       -0.11543583 -0.029988669 0.008241605 -0.076258466
0000b0 10 a1 5d be d7 20 40 be f0 41 93 be a6 83 6b be
       -0.21643472 -0.18762527 -0.28761244 -0.22999439
0000c0 c5 c7 04 3e 1e e4 ba bd 02 8c 94 bc 92 fe bc 3c
       0.12966831 -0.09125541 -0.018133167 0.023070607
0000d0 65 34 89 bd 69 0c e6 3c 7b 37 9d be fe 35 80 bd
       -0.066994466 0.02808209 -0.3070639 -0.06260298
0000e0 38 5d 7f be c4 9d 27 be 1e 10 f8 3c 38 6b 1f 3d
       -0.24937904 -0.16368777 0.030281123 0.03892061
0000f0 98 af 83 be 1e eb 9b be ab 64 02 3e 6b f4 2d be
       -0.25719905 -0.30452818 0.12733714 -0.1698777
000100 94 c2 6f be aa cc a7 3d ed 7e 17 be bb 09 0c bd
       -0.2341407 0.081933334 -0.14794512 -0.034188967
000110 d6 27 66 be 2e 01 99 be 1e ce a8 be a7 8f 86 be
       -0.22476134 -0.29883713 -0.32969755 -0.26281473
000120 63 f5 49 be 03 89 00 bd 0e 89 c7 bc 4e ff 80 bd
       -0.19722514 -0.031380665 -0.024357345 -0.062986955
000130 f8 66 14 be f0 58 b8 3a 2a 57 b7 bd 7b dd 0f be
       -0.14492404 0.0014064591 -0.08952172 -0.14049332
000140 d6 10 96 be ae 35 b0 3d d5 90 d3 be 18 98 83 3c
       -0.2930972 0.086039886 -0.41321436 0.016063735
000150 5c 26 21 be 35 5f 87 be 7c 69 85 be 0e 2f a3 be
       -0.15737289 -0.26439825 -0.2605704 -0.31871837
000160 93 4e fc bd 22 66 7f bd 2e 47 d8 3d af 4e 76 be
       -0.12319674 -0.06235326 0.105604514 -0.24053453
000170 27 3a 72 be 8b a1 37 3e 62 2e bc bd 5e c2 de bd
       -0.23654996 0.17932718 -0.09188534 -0.10876916
000180 52 ce 26 be d0 09 8f be cd e5 96 be 47 7d a4 be
       -0.16289642 -0.27937174 -0.294722 -0.3212683
000190 3c 38 e3 3d 06 0f 83 be ec 97 3e 3d fb a1 ce 3d
       0.1109471 -0.255974 0.046531603 0.10089489
0001a0 b1 af 21 3e 43 28 ca 3d 47 d7 15 3e 10 52 cb 3b
       0.15789677 0.098709606 0.14632903 0.006204851
0001b0 1c 5a a8 bd 70 45 80 3e 36 59 99 be e6 fb 8a be
       -0.08220312 0.25052977 -0.29950875 -0.27145308
0001c0 3e 72 4b be 25 69 52 be 40 af c2 3c 57 de 30 be
       -0.19867799 -0.20547922 0.023765206 -0.17272316
0001d0 12 e6 bd bd 5b 11 db bd de be 0b be c2 4c 70 3e
       -0.09272398 -0.1069667 -0.13647029 0.23466781
0001e0 68 ef bd 3d ca b5 06 be 54 6c 2c 3e a5 2e f4 3d
       0.09274179 -0.13155285 0.16838199 0.11922959
0001f0 2e b6 91 be cd 4e 8b be 6a f4 1f be 17 7c d8 3d
       -0.28459305 -0.27208558 -0.1562058 0.10570543
000200 57 ab 8c be 8e 13 0e be 43 eb 78 be 54 6b 1e 3d
       -0.27474472 -0.13874647 -0.24308495 0.038676575
000210 67 5a cc bc 18 06 b4 be 72 b4 8b be f5 31 37 be
       -0.024945451 -0.351609 -0.27286106 -0.17890151
000220 72 9e 5a 3e 22 17 39 3e 90 8b 1b be ef 2d 57 3e
       0.21349505 0.1807523 -0.15189958 0.21013616
000230 4b d8 c1 3d 30 5c 81 be 7c 8e 1e 3b 10 54 6c bc
       0.09465083 -0.25265646 0.0024193814 -0.014424339
000240 10 b8 09 3e f8 df ff bc e3 66 e3 bd 82 05 b1 be
       0.1344912 -0.031234726 -0.111036085 -0.34574515
000250 53 45 e4 3d 39 1e d4 bd 22 04 97 be c4 c4 02 3d
       0.11146035 -0.10357327 -0.2949534 0.03192593
000260 d4 5c 51 3d fb df 07 bd f4 67 5b bc 27 79 2d be
       0.05111392 -0.03317259 -0.013391484 -0.16940747
000270 e4 e5 a4 be 5b 91 c5 bd 9a e9 6f bd 9e 04 b6 bd
       -0.32206643 -0.09646865 -0.05857239 -0.088875994
000280 de 41 21 be c2 f9 64 be fc 52 a5 be f6 b1 48 3e
       -0.15747783 -0.223609 -0.32289875 0.19599137
000290 42 35 d6 bd b9 cd 95 bc 44 97 ef ba b0 ad 47 3d
       -0.10459377 -0.018286573 -0.0018279334 0.048749626
0002a0 77 4a 0d bd db a5 99 3d ed d5 84 be 08 78 1f bd
       -0.034494843 0.075023375 -0.25944462 -0.03893283
0002b0 b9 ab 4b be fd c8 91 be 51 06 8e 3d 3a bc cc bd
       -0.19889726 -0.28473654 0.069347985 -0.09996839
0002c0 9a 0b 57 be 39 ea e2 3d 05 7c b3 be 47 34 8e be
       -0.2100052 0.11079831 -0.35055557 -0.2777426
0002d0 85 b1 c3 3d f2 ea 1e be 89 22 ab bc ba e3 96 3d
       0.095553435 -0.15519312 -0.020890491 0.07367654
0002e0 1c 42 02 be 1f 37 bd be 83 a2 bd 3d 29 66 9b 3d
       -0.12720531 -0.36956117 0.09259512 0.07587845
0002f0 38 fd 9a be 78 36 83 be da 76 3f 3c 00 8a bc be
       -0.30271316 -0.25627494 0.011686051 -0.36824036
000300 a0 49 5b 3b b3 35 1f be 76 c4 a5 bd ff a4 93 bd
       0.0033460632 -0.15547828 -0.080941126 -0.07209205
000310 ae ef 46 be a9 e7 73 be 39 3a 2d be 9a 36 6c be
       -0.19427368 -0.2381884 -0.16916741 -0.23067704
000320 00 1c a0 be 02 dd cc 3d cc 3b 17 be 04 0e 92 be
       -0.31271362 0.100030914 -0.14768904 -0.28526318
000330 1c 25 82 3d f0 d9 30 3d 16 f8 d1 3c 77 4c 6d bd
       0.06354734 0.04317659 0.025630992 -0.05793425
000340 82 c0 03 3d a0 65 da bd fa 80 55 be 06 e8 33 be
       0.03216601 -0.10663915 -0.20849982 -0.17568979
000350 15 bb 8a 3d a8 74 54 3c fa 73 1a 3e aa 54 b4 be
       0.06773964 0.012967266 0.15083304 -0.35220844
000360 a7 61 18 be eb dd 35 bd c0 53 59 b9 3a 66 fd 3d
       -0.14881001 -0.04440109 -0.00020725932 0.12373014
000370 78 ff 0b bd 10 bc ea bb 47 9f 61 be f6 ca e3 3d
       -0.03417918 -0.007163532 -0.22033416 0.11122696
000380 4f 6c 1b 3e 26 81 e1 bc 77 8f 0a be 82 8b ae be
       0.15178035 -0.027527403 -0.1353129 -0.3409081
000390 82 40 cb bd 4d 8c 4d bd cf 74 b1 be 3e 3d e4 3b
       -0.09924413 -0.05018263 -0.3465943 0.0069653085
0003a0 c2 64 86 be 97 15 fd bd d1 f4 2f 3d 84 f4 2c 3e
       -0.26248747 -0.123576336 0.042958084 0.1689015
0003b0 fb f4 fb bd da d0 69 3d ee 61 2f 3e 0c 08 2a bb
       -0.12302586 0.057083942 0.17127201 -0.0025944738
0003c0 94 d8 97 be 67 a2 12 be 2a bf 63 be 45 a7 40 3e
       -0.29657423 -0.14319764 -0.22240892 0.18813808
0003d0 72 c9 37 3e 7d fc aa be a3 9a 78 be d7 03 79 3e
       0.17947939 -0.33395758 -0.24277739 0.24317871
0003e0 a4 40 b4 3b 68 60 ed bb 4d 3b b3 3d 27 63 7b 3e
       0.00550087 -0.0072441585 0.08751545 0.24549542
0003f0 2d fd 3f 3e 9a fb 96 be 4c e0 91 be 61 dc 0e 3e
       0.18748923 -0.29488832 -0.28491437 0.13951255

weight f4 [3, 256]
000000 89 22 6e bd 46 13 14 3d 13 07 54 3b c8 e3 04 bd
       -0.058138404 0.036151193 0.003235285 -0.03244379
000010 b5 db 1a 3d 40 28 91 ba d2 5e 96 3b 10 02 02 3d
       0.037807185 -0.0011074618 0.00458894 0.03174025
000020 40 bf 09 b9 90 66 67 3d 38 bb 56 3d 40 dc ad 3a
       -0.00013136584 0.056494296 0.05242464 0.0013264492
000030 fe d1 2e bd eb a3 32 3d b3 7a 44 3d 60 08 82 bc
       -0.042680733 0.043613356 0.047968578 -0.015873134
000040 be 0f 41 3c 71 af 28 3d 5f 48 d5 bc 2e ac 29 bd
       0.011783538 0.04118294 -0.026035486 -0.04142397
000050 04 c6 11 bd db 0b 2a bd 1c 16 19 bc 9f 51 1d bb
       -0.035589233 -0.041515213 -0.00934365 -0.0024004949
000060 7a 43 e4 3c 99 7b e9 bc 61 b5 86 bc 5c bc e0 bb
       0.027864207 -0.028501319 -0.01644391 -0.0068583917
000070 e2 09 23 3d f0 f4 bd 3b 65 2d 36 3d 28 62 3a 3c
       0.039804347 0.005797021 0.044476885 0.011375941
000080 65 b2 02 bd 62 65 9a 3d 0c a9 8d 3d 7e 3f 19 bc
       -0.03190841 0.075388685 0.06917009 -0.009353517
000090 49 47 91 3b a4 09 c5 3c 56 94 66 bd c6 ec 82 3d
       0.0044335467 0.024052449 -0.056293808 0.06392817
0000a0 3f 77 c5 3c 71 75 63 3d e9 82 95 bd 9e e5 20 3c
       0.024104713 0.055531923 -0.0730036 0.00982037
0000b0 e2 09 38 3d 96 ee f9 bc 6d 75 16 3c e8 31 8e 3c
       0.0449313 -0.030509274 0.00918327 0.017357782
0000c0 05 32 89 3b c2 c8 53 bd 62 ce 46 3b 60 a2 1b bd
       0.004186871 -0.05170513 0.0030335416 -0.03799665
0000d0 24 ab 70 3d bb e9 e4 3c 0e e4 7b bd 11 d6 4f bd
       0.058756962 0.027943483 -0.061496787 -0.05074126
0000e0 a8 c0 67 bc 11 1e c4 3b d4 ad 10 3c 5d 70 f1 bb
       -0.014145054 0.0059850295 0.008830506 -0.007368131
0000f0 23 ac ee 3c 86 b7 ad bc 43 c1 ec 3c ad 14 ec bc
       0.029134816 -0.021205675 0.028900748 -0.028818453
000100 67 4a d4 bc 18 e0 02 3c 40 b6 7f bd 2c 6e 85 bd
       -0.025914384 0.007987998 -0.062429667 -0.06515154
000110 41 e7 35 bd 9d 8f 80 3d 23 88 82 3d 80 69 af bc
       -0.044409994 0.06277392 0.06373622 -0.021412611
000120 60 e7 1a bb 7f d0 b7 bd 9b dd 8e bd e6 ad a0 3c
       -0.0023636445 -0.08975314 -0.06975862 0.019614171
000130 6a cb 0f bc 0e d5 89 bc 0e 33 f3 bc d6 dc 00 3c
       -0.008776525 -0.016825225 -0.02968743 0.007865151
000140 16 8c 6d 3d 48 ed 1c bd 14 c4 c8 3c 4c de eb 3c
       0.057994924 -0.038312227 0.02450756 0.028792523
000150 7c 06 06 ba 00 80 e1 bc 27 11 f8 bb 4f fd 29 3d
       -0.00051126606 -0.027526855 -0.007570404 0.04150134
000160 ec 28 90 3c f0 e7 46 3c f9 e7 e7 bc a0 c9 0c 3d
       0.017597638 0.012140259 -0.028308855 0.034371972
000170 69 52 4f 3c 34 51 7c 3c 1c 5f cb 3b 8a 3d 15 3d
       0.012653925 0.01540022 0.0062064063 0.03643564
000180 49 be a7 3a 84 2a 26 bd a0 c5 fd bb e3 d0 ea 3c
       0.0012797798 -0.04056789 -0.007744506 0.028664058
000190 20 2e af bc 49 87 cc bc 75 6c 7e 3d 95 ca df 3c
       -0.021384299 -0.024966853 0.06211515 0.027318278
0001a0 b7 5b ce bc 5d 84 87 3c ff 33 84 bc 57 6e b0 bc
       -0.025190217 0.016542608 -0.016138075 -0.02153699
0001b0 70 a4 02 bd 8f b3 4f 3c 86 61 12 bd 58 76 ac 3c
       -0.0318951 0.012677087 -0.035737537 0.021052524
0001c0 9b e7 af bc 5f 20 af 3c 58 09 1d 3d 3b f3 64 bd
       -0.021472743 0.02137774 0.03833899 -0.055896025
0001d0 35 09 40 3d 6a ef 28 3d 01 63 12 3d 88 8f 56 3c
       0.04688378 0.041243948 0.03573895 0.013095744
0001e0 af 62 02 3d a9 df cb 3d ee f1 96 3d 33 e5 02 3d
       0.031832393 0.09954769 0.07370363 0.031956863
0001f0 04 87 13 3d 20 56 3b 3d a5 b2 a4 bc 2c ae 7c bb
       0.036017433 0.045736432 -0.020104716 -0.0038555963
000200 38 28 40 3c 71 56 16 3d a1 d8 82 3d b0 c8 5f ba
       0.011728339 0.03670353 0.06388975 -0.00085366797
000210 a7 69 2b 3d 87 50 f8 bc 69 a2 49 ba 06 9e 13 3c
       0.041848805 -0.030311836 -0.00076917425 0.009009844
000220 9c ad d4 bc 32 33 b5 bc 5e ad 45 3c 00 76 54 3d
       -0.02596169 -0.022119138 0.01206526 0.051870346
000230 68 80 b5 bc 22 83 4d 3d 84 49 a0 3c e8 8f 2f bc
       -0.022155955 0.050173886 0.019566305 -0.010715462
000240 76 99 c0 3c bc db 74 3c 9c b3 0d 3d 58 58 17 3d
       0.023510676 0.014944967 0.034595117 0.036949486
000250 e4 83 b0 3d 2e 81 2b bd 98 cb 4a 3d a4 82 e5 bc
       0.08618906 -0.041871242 0.04951057 -0.028016396
000260 31 dd b1 bc 09 fc 1d bc 3f 0b e2 bc ef 7b 66 bc
       -0.021711918 -0.009642609 -0.027593253 -0.014067634
000270 74 89 3b bd eb f6 39 3d 80 11 b4 3c f4 65 5b 3c
       -0.045785382 0.045401495 0.021981 0.013391007
000280 2c ef 28 3d 46 b9 6d bc 9f 20 bc bb a7 06 0a bd
       0.041243717 -0.014509505 -0.0057411934 -0.03369775
000290 6a f9 f5 bc 51 14 83 3c 07 da df 3c a1 aa 74 bc
       -0.030026156 0.016000899 0.027325643 -0.014933259
0002a0 18 31 df 3b aa bb 40 3d 4f d2 79 bd d4 90 ec 3c
       0.0068112724 0.04705397 -0.06099158 0.028877653
0002b0 a4 5b 49 bd e5 fa a6 3c 4b e3 43 bc 07 e2 ae 3c
       -0.04915966 0.020383308 -0.011956046 0.021348013
0002c0 72 5a f2 39 40 c5 e3 ba e7 52 bd 3d 3f 6a 9a 3d
       0.00046225224 -0.0017377511 0.09244328 0.07539796
0002d0 2e 93 fb bc 80 54 a9 3a 20 11 db 3c c3 67 25 bd
       -0.03070983 0.001291886 0.026741564 -0.040382158
0002e0 a4 2f 1a bd 53 b0 d0 39 7b c5 89 3c b7 7b da 3c
       -0.03764309 0.00039804223 0.016817799 0.02667032
0002f0 23 99 23 3d b0 dd 57 3d 40 a6 1c bd b9 97 31 bd
       0.039940964 0.052701652 -0.038244486 -0.043357585
000300 68 f1 11 bb 00 c1 2b ba 3f 04 b5 3c f8 cb 21 bd
       -0.0022269133 -0.00065518916 0.022096751 -0.03950116
000310 e4 fb 8a bc fa f4 12 3d 38 0e 0e 3d fc 87 a6 3b
       -0.016965814 0.03587816 0.03468153 0.0050821286
000320 fe 5f 44 bd 28 a3 93 bc c0 91 24 3d 9d 0c c5 bd
       -0.047943108 -0.018022135 0.04017806 -0.096215464
000330 fe f6 47 bd d0 f1 70 3c 1e 4a 00 3d 49 89 0d 3c
       -0.048819534 0.01470609 0.031320684 0.008638688
000340 a0 bb dc bb 23 a7 1b bd ac e1 f8 ba 5f cc 8b 3d
       -0.006736234 -0.03800119 -0.0018988154 0.0682609
000350 1d e5 d2 3c ef a0 46 bd 7e b8 bd 3c 35 77 0f bd
       0.025744015 -0.048493322 0.023159262 -0.035025794
000360 40 cd 2e bd a2 9b 58 3c 24 52 3b b9 b0 d0 a8 bc
       -0.04267621 0.0132206995 -0.0001786431 -0.020607322
000370 66 c3 b6 bd fd 5b 42 3d f0 fb 15 bd 6c c6 9e 3c
       -0.08923988 0.047451008 -0.03661722 0.019381724
000380 c8 a5 5f bb 20 d4 1c 3d ab 35 c9 3c 00 52 10 39
       -0.0034125913 0.038288236 0.024561724 0.00013763458
000390 00 00 81 b8 32 0d 4e bc da a4 57 bd b0 15 a9 3b
       -6.151199e-05 -0.012576388 -0.05264745 0.005160056
0003a0 98 ea 40 bc 23 8d 9a 3b 38 ad 43 3c e5 87 2c 3d
       -0.0117746815 0.004716532 0.011943154 0.042121787
0003b0 91 d8 90 3d 75 52 60 bd 94 7d e9 3c ef c6 81 3d
       0.07072557 -0.054766137 0.028502263 0.06336772
0003c0 a3 03 8a bc 21 6b 10 3c d0 1a 5b bd fa 23 c3 3b
       -0.016847437 0.008814604 -0.053492367 0.0059552165
0003d0 48 97 f5 3c 20 77 f5 3b f7 ac 82 3d fc dd c0 bd
       0.029979363 0.0074910074 0.06380647 -0.0941734
0003e0 1f 08 7e 3d a8 d4 77 bd 12 45 b1 3d aa 6c 85 bc
       0.062019464 -0.06050554 0.08655752 -0.016287167
0003f0 60 b1 32 bc ae b6 c9 3d 04 10 b4 3c e5 9d 85 3d
       -0.010906547 0.098492965 0.021980293 0.065242566

bias f4 [3]
000000 46 5c 3e 3d 15 46 a9 3a fc 03 17 3d
       0.046474718 0.0012914563 0.036869034
