model/model.pth (torch, 17216 bytes, 4 tensors)

linear1.weight f4 [256, 11]
-0.055171397 -0.2956988 0.52283615 1.3700066 0.9066434 1.3835378 0.38013396 -0.010826219
0.17882839 -0.35404652 0.6782371 -0.06932624 0.3916094 -1.286467 0.98042834 0.25942194
1.0268471 1.077591 -0.03916199 0.37763086 -0.26405975 0.202143 -0.36630604 0.74260354
0.56850034 1.4696872 1.0431696 1.0383176 0.47135296 -0.9438462 -0.6904693 0.25406164
0.7003118 -0.14250715 1.0578227 0.1735418 0.011598173 1.2567122 0.3225128 -0.045094784
0.1300017 -0.2858675 -0.59053105 0.34652027 0.063086726 0.35599303 0.41928038 0.7693444
0.8843059 0.4137339 1.2219721 -0.17595562 0.61274993 0.19078407 -0.5300086 -1.1244396
-0.010792413 0.5481464 0.035824936 0.820757 0.48828572 -0.10452163 0.50623286 -0.10662332
0.42497468 0.536222 0.30175343 1.1081312 -0.9305507 0.6014267 0.05303152 0.3772467
0.02625665 -0.31088334 -0.16608268 0.16212991 -0.33280137 -0.2882677 0.7663026 -1.053422
0.6350477 0.22415887 1.0001113 0.18352368 -0.7193215 0.2794202 -0.17950675 0.28346127
0.057995502 0.665119 -0.79158556 -0.475511 0.04275185 0.2316072 0.65442246 -0.79528964
0.030855121 0.27394155 -0.18572034 0.19198602 0.035778202 -0.69097775 0.53529495 0.36169603
0.49677834 0.3543177 0.06395059 0.2589678 0.015805025 0.1638875 -0.28615513 1.3098515
0.2856404 0.9491911 1.9600999 1.524134 0.5678995 -0.6166134 -1.2719532 -0.29176334
0.6126985 0.18488972 0.6871667 0.18179241 0.54350644 -0.09925916 0.6098561 0.39618722
-0.0633386 0.29425907 -0.5173595 0.024502102 0.31492054 -0.11514904 0.28703687 -0.11169378
0.60705674 0.31753892 -0.25874645 0.7715432 0.21329105 0.37800097 0.73546374 0.6375209
0.9049883 -0.15230088 0.24103615 -0.20931774 -0.20269607 0.088259555 0.41937768 0.6378024
0.68652165 0.39793137 -0.20369717 -0.5324776 -0.8680245 -0.11012044 -0.19748415 -0.37398824
-1.0446587 -0.021078177 0.12263469 0.07636735 -0.7794493 0.09295943 -0.89391506 0.16461693
0.42392513 0.56409645 1.047605 -0.39821047 -0.29609302 0.27077162 -0.3300282 -0.04302981
-0.31906387 0.22554944 0.065130234 -0.6922387 -0.77007717 -0.65805554 -0.7639762 0.54882115
0.6979954 0.42038566 0.43606982 0.5189061 0.17084602 0.6073722 0.4203667 1.3650541
0.3683415 1.1516031 0.5042947 0.18736103 0.34671998 -0.43973446 0.11077854 -0.44286844
0.040528458 -0.9880718 -0.90705746 -0.74210644 -0.9245511 0.032287918 -0.1404587 -0.25946498
-0.3751544 0.15460114 0.45689744 0.17027424 0.6253121 -0.1404293 -0.090891555 0.70835704
0.2195878 0.96782106 0.9273671 0.09277653 0.010464686 -0.89860356 1.4852288 -0.49660754
-0.5336324 -0.26733845 0.074984826 -0.88237154 -0.84017676 -1.0671293 -0.46185613 0.7878933
-0.73997897 1.2708828 0.64317805 -1.2087711 0.91233367 1.4450421 0.49871805 0.94834197
-0.008750929 -0.7067256 0.23383062 -0.1071475 -0.3262809 0.81304604 0.9771916 1.785649
1.4080731 0.73798585 0.55005425 -0.30336666 -0.07357563 0.14606917 0.054278072 0.50359225
00000000: 67fb 61bd d565 97be 97d8 053f 605c af3f
00000010: c819 683f c417 b13f eba0 c23e 7460 31bc
00000020: ca1e 373e 9645 b5be f2a0 2d3f eafa 8dbd
00000030: 0781 c83e f3aa a4bf 5afd 7a3f f4d2 843e
00000040: ba6f 833f 80ee 893f 5368 20bd d558 c13e
00000050: d732 87be 93fe 4e3e 778c bbbe 441b 3e3f
00000060: 3d89 113f b61e bc3f 9586 853f 97e7 843f
00000070: 2d55 f13e e89f 71bf 99c2 30bf 5e14 823e
00000080: a247 333f 65ed 11be bc66 873f f1b4 313e
00000090: 4306 3e3c f2db a03f 6620 a53e 4fb5 38bd
000000a0: 2a1f 053e 3a5d 92be 0b2d 17bf 1b6b b13e
000000b0: 9d33 813d b844 b63e ebab d63e c1f3 443f
000000c0: df61 623f eed4 d33e 9569 9c3f b62d 34be
000000d0: 2edd 1c3f e65c 433e a5ae 07bf a3ed 8fbf
000000e0: a9d2 30bc 5353 0c3f 2bbd 123d 211d 523f
000000f0: 9600 fa3e 700f d6bd 7a98 013f 545d dabd
00000100: 4896 d93e d845 093f 6d7f 9a3e 3ed7 8d3f
00000110: 9238 6ebf 1af7 193f 9437 593d 7b26 c13e
00000120: 3018 d73c 1a2c 9fbe 9411 2abe 6205 263e
00000130: f164 aabe d397 93be 682c 443f 88d6 86bf
00000140: 7c92 223f e789 653e a603 803f a2ed 3b3e
00000150: 7425 38bf 2a10 8f3e 9ed0 37be d621 913e
00000160: b18c 6d3d 3d45 2a3f 5aa5 4abf 2e76 f3be
00000170: 901c 2f3d 702a 6d3e 3b88 273f 1a98 4bbf
00000180: e1c3 fc3c 1142 8c3e 792d 3ebe fc97 443e
00000190: 2a8c 123d ebe3 30bf 1709 093f 3930 b93e
000001a0: bb59 fe3e 2169 b53e 87f8 823d 6d97 843e
000001b0: 8a79 813c 20d2 273e ed82 92be 37a9 a73f
000001c0: 753f 923e 30fe 723f 8ee4 fa3f d316 c33f
000001d0: dd61 113f 60da 1dbf 5dcf a2bf 0162 95be
000001e0: cfd9 1c3f bb53 3d3e 28ea 2f3f ca27 3a3e
000001f0: 3d23 0b3f 6348 cbbd 881f 1c3f 0dd9 ca3e
00000200: abb7 81bd 20a9 963e ac71 04bf a2b8 c83c
00000210: 443d a13e 43d3 ebbd 7ff6 923e b5bf e4bd
00000220: 1268 1b3f 7694 a23e 6a7a 84be db83 453f
00000230: f868 5a3e 5889 c13e 5a47 3c3f 9234 233f
00000240: 50ad 673f c3f4 1bbe 2ed2 763e 6457 56be
00000250: 8f8f 4fbe 6dc1 b43d acb8 d63e 0547 233f
00000260: e2bf 2f3f a9bd cb3e fe95 50be 7450 08bf
00000270: db36 5ebf d386 e1bd 4939 4abe 637b bfbe
00000280: 60b7 85bf 24ac acbc e527 fb3d 7c66 9c3d
00000290: fd89 47bf 8361 be3d 9ed7 64bf 5791 283e
000002a0: b70c d93e a068 103f ec17 863f 3ee2 cbbe
000002b0: 8199 97be 94a2 8a3e 75f9 a8be 0740 30bd
000002c0: 575c a3be 6ff6 663e 0063 853d 8e36 31bf
000002d0: c723 45bf 5476 28bf f293 43bf 8b7f 0c3f
000002e0: d4af 323f ca3c d73e 8b44 df3e 08d7 043f
000002f0: 42f2 2e3e bf7c 1b3f 4e3a d73e 18ba ae3f
00000300: 4297 bc3e bb67 933f 7519 013f 92db 3f3e
00000310: 4885 b13e e024 e1be dcdf e23d a7bf e2be
00000320: 2b01 263d 46f2 7cbf eb34 68bf b0fa 3dbf
00000330: 62af 6cbf 5640 043d 68d4 0fbe 98d8 84be
00000340: 3d14 c0be c34f 1e3e 76ee e93e 5f5c 2e3e
00000350: 7414 203f b3cc 0fbe 5a25 babd e356 353f
00000360: a0db 603e 1fc3 773f ee67 6d3f 9f01 be3d
00000370: 1374 2b3c e20a 66bf fa1b be3f 5843 febe
00000380: 229c 08bf 96e0 88be a591 993d 1ae3 61bf
00000390: d315 57bf b197 88bf 6878 ecbe 60b3 493f
000003a0: 436f 3dbf 4aac a23f 51a7 243f 03b9 9abf
000003b0: b38e 693f 24f7 b83f f957 ff3e 8ac6 723f
000003c0: 0e60 0fbc f8eb 34bf 4b71 6f3e 2670 dbbd
000003d0: 4a0e a7be c923 503f 3b29 7a3f 2590 e43f
000003e0: bd3b b43f a4ec 3c3f 5bd0 0c3f e052 9bbe
000003f0: d2ae 96bd 2893 153e af52 5e3d 6ceb 003f

linear1.bias f4 [256]
-0.7277328 -0.7731359 -0.71972287 -0.3667047 -0.9576008 -0.8191274 -0.19138724 -0.07837283
-0.22618978 -0.82872206 -0.60401297 -0.5415193 -0.76352125 -0.44657776 1.4364018 0.078175984
0.28156587 -1.1006334 0.86188865 -1.0158018 1.3507046 -0.34580415 -1.2171 -0.8976395
-0.67230606 -0.45557785 0.14202681 1.820854 -0.11766214 -0.24078879 -0.35878012 0.3915787
0.28922203 -1.2037951 -1.1152413 -0.7593031 -0.36448944 0.61100537 -0.019489665 1.4829291
-0.98635125 0.3517372 -0.16117655 0.36476442 0.8954676 0.23783964 -0.9669918 -0.29327637
0.95454884 -0.5226602 0.84206766 -0.9243853 -0.8740851 0.4554706 -0.44909042 -0.21463425
0.14826207 -0.12832224 -0.5651038 0.29322782 0.095693655 -0.46911022 -1.1370957 -0.027612297
-0.9592604 1.0115714 -0.24337818 -0.5615192 -1.0997441 -0.5682299 1.0265979 0.62774724
-1.0265592 -0.3425376 0.4939954 -0.21123774 -0.3321283 -0.739263 0.5241193 0.42777866
-0.76118034 -0.60667884 -1.2443957 -0.45987475 -0.8757727 -1.2131132 -0.82421654 0.9841187
-0.69911903 -1.0716257 -1.0646483 -0.14981817 -0.81024015 -0.03482949 -0.5672511 -0.92549133
-0.90479153 -0.67251194 -0.30533555 0.51568437 0.96137756 2.5710497 -0.018708931 -0.8133036
-0.5076704 0.7418215 -0.75009537 1.7345438 -1.2176607 0.13003698 -0.049207687 0.023214197
-0.02706225 -0.54831797 -0.29255992 -1.0180019 -0.034740686 -0.12355252 -0.2059147 0.5788309
-0.19213808 0.0719429 1.3741245 1.3529627 -0.4558459 -0.083673544 -0.90262306 -0.4899144
0.35502324 0.79826903 -0.76063645 0.27255553 -0.53533024 -0.31053904 -0.60148007 0.9208948
0.14433362 -0.30632994 -0.9047065 -0.81061506 -0.3649261 -0.9365876 1.6646373 0.3270019
0.42897108 -1.4975474 -0.6695245 -0.9166806 -0.84589803 0.23094642 0.6560328 -0.1491719
-0.8125583 -0.4144618 -0.62138474 -0.8181234 -1.0073643 -0.3819782 -0.84248585 -0.11045975
0.010532295 0.8978823 -1.0439572 -0.47226498 -0.9057533 -0.4778988 -0.4701152 -1.1267457
1.0680784 -1.0831156 -0.69269085 0.822165 0.056228038 -0.07139523 -0.5615186 -0.73617816
-0.663848 -0.6180324 -0.3436626 -0.49653962 0.2757883 -0.10655248 -0.9283836 0.24242415
-0.57850635 -0.3018857 -0.5480135 0.31955144 -1.0171387 1.2395638 -0.753966 0.9241139
-0.78940576 -0.17241356 -0.94846815 0.1713378 -0.5206823 0.30282483 -0.5652897 0.0039415797
0.57389563 0.7600951 -0.7156167 -0.6064544 -0.832768 0.07298363 -0.6214682 -0.057125166
1.3153884 -0.3548126 -0.7055621 -0.16498607 -0.83854115 -0.6704277 -0.22361259 0.9143302
1.9473163 -0.34628844 -1.0321124 -0.9124034 -0.35137665 1.7746952 -0.5826198 -1.2215474
-1.103995 -0.0895857 0.010010453 -1.1999793 -1.2284331 -0.7635742 -1.0438693 0.5669742
-0.80739623 0.4782762 0.14659412 -0.17272295 -0.9852633 -0.5910447 -0.22641298 -0.27340004
-1.0562409 1.6521039 0.70161825 -0.82010305 -0.44292948 -0.98707706 -0.056868058 -0.18616292
-0.2658815 -1.1208639 1.1303635 -0.9588402 0.1173032 -0.86285 -0.72408473 0.60847104
00000000: b24c 3abf 3cec 45bf c23f 38bf b8c0 bbbe
00000010: 5325 75bf 55b2 51bf 04fb 43be ef81 a0bd
00000020: 4b9e 67be 2127 54bf 98a0 1abf 02a1 0abf
00000030: 2176 43bf d7a5 e4be 04dc b73f bb1a a03d
00000040: 6729 903e 8ee1 8cbf bca4 5c3f cb05 82bf
00000050: e3e3 ac3f 3e0d b1be efc9 9bbf b4cb 65bf
00000060: 401c 2cbf 8041 e9be 7a6f 113e be11 e93f
00000070: d9f8 f0bd 5691 76be 07b2 b7be 017d c83e
00000080: e914 943e f515 9abf 3ac0 8ebf b061 42bf
00000090: 5c9e babe d96a 1c3f caa8 9fbc 9fd0 bd3f
000000a0: 8481 7cbf e616 b43e 770b 25be 67c2 ba3e
000000b0: 5d3d 653f 3c8c 733e c68c 77bf 5228 96be
000000c0: 505d 743f 0fcd 05bf bf91 573f 84a4 6cbf
000000d0: 0bc4 5fbf 7133 e93e 2eef e5be 15c9 5bbe
000000e0: 03d2 173e e866 03be a5aa 10bf f521 963e
000000f0: 09fb c33d 372f f0be 5a8c 91bf 2f33 e2bc
00000100: 1792 75bf 2c7b 813f 2138 79be b9bf 0fbf
00000110: 6ac4 8cbf 8477 11bf 8f67 833f 0bb4 203f
00000120: 4b66 83bf 1761 afbe f7ec fc3e b54e 58be
00000130: b80c aabe 5740 3dbf af2c 063f ce05 db3e
00000140: b7dc 42bf 4e4f 1bbf 5c48 9fbf b474 ebbe
00000150: a432 60bf 4b47 9bbf dbff 52bf 34ef 7b3f
00000160: 77f9 32bf 082b 89bf 6546 88bf ef69 19be
00000170: e66b 4fbf 5ea9 0ebd 5e37 11bf 00ed 6cbf
00000180: 6ba0 67bf be29 2cbf f154 9cbe e403 043f
00000190: d71c 763f 148c 2440 7943 99bc aa34 50bf
000001a0: b0f6 01bf 04e8 3d3f 4006 40bf 8805 de3f
000001b0: 4edc 9bbf 6a28 053e 008e 49bd b32b be3c
000001c0: a7b1 ddbc 915e 0cbf 6aca 95be e34d 82bf
000001d0: 404c 0ebd 1b09 fdbd 4edb 52be 432e 143f
000001e0: d8bf 44be cd56 933d 50e3 af3f e22d ad3f
000001f0: a264 e9be 095d abbd 4e12 67bf 0fd6 fabe
00000200: 9bc5 b53e 5c5b 4c3f 12b9 42bf 668c 8b3e
00000210: 670b 09bf f9fe 9ebe 99fa 19bf c3bf 6b3f
00000220: 31cc 133e 47d7 9cbe d89a 67bf 7884 4fbf
00000230: 98d7 babe 34c4 6fbf d612 d53f cb6c a73e
00000240: 19a2 db3e a2af bfbf f565 2bbf 94ab 6abf
00000250: c68c 58bf 387d 6c3e c4f1 273f 85c0 18be
00000260: d203 50bf 5634 d4be 1213 1fbf 8970 51bf
00000270: 50f1 80bf a692 c3be 27ad 57bf b938 e2bd
00000280: a68f 2c3c 9ddb 653f 64a0 85bf b7cc f1be
00000290: 73df 67bf 27af f4be f1b2 f0be 3439 90bf
000002a0: cbb6 883f 88a3 8abf 3054 31bf 6879 523f
000002b0: 5f4f 663d aa37 92bd afbf 0fbf 2c76 3cbf
000002c0: f1f1 29bf 5f37 1ebf 8bf4 afbe 713a febe
000002d0: 2034 8d3e 3038 dabd 8caa 6dbf 093e 783e
000002e0: fe18 14bf c390 9abe 9d4a 0cbf 3f9c a33e
000002f0: 9a31 82bf 07aa 9e3f ea03 41bf bb92 6c3f
00000300: 7f16 4abf 2e8d 30be cfce 72bf 2d73 2f3e
00000310: 6f4b 05bf db0b 9b3e d3b6 10bf 5e28 813b
00000320: d3ea 123f 9895 423f a832 37bf 9840 1bbf
00000330: 4930 55bf 7178 953d 8a18 1fbf 14fc 69bd
00000340: a65e a83f ffa9 b5be b89f 34bf 1cf2 28be
00000350: a2aa 56bf 26a1 2bbf b3fa 64be 8b11 6a3f
00000360: a941 f93f b84c b1be 421c 84bf 4593 69bf
00000370: a4e7 b3be 3629 e33f 9226 15bf aa5b 9cbf
00000380: b54f 8dbf b578 b7bd e202 243c ec98 99bf
00000390: 4c3d 9dbf 9979 43bf 829d 85bf 3925 113f
000003a0: 85b1 4ebf 9ee0 f43e c51c 163e 49de 30be
000003b0: 373a 7cbf b54e 17bf ced8 67be 17fb 8bbe
000003c0: e732 87bf 2478 d33f 419d 333f 46f2 51bf
000003d0: a7c7 e2be 15b1 7cbf 7bee 68bd 7ea1 3ebe
000003e0: 9f21 88be 7878 8fbf c0af 903f 8d76 75bf
000003f0: a93c f03d bde3 5cbf 9e5d 39bf c2c4 1b3f

linear2.weight f4 [3, 256]
-0.39270896 0.022874953 -0.051832315 -0.6643813 -0.90200037 -0.13795726 -0.16720103 -0.13160053
0.08183593 1.3616083 -0.23043764 -0.3255349 -0.21652018 0.097549364 0.5667016 -0.73479825
0.5608095 -0.3734964 0.84535086 -0.6620068 0.6333017 -0.36692584 -1.0760467 -0.2616586
-0.43593493 0.083581604 -0.06415841 0.931926 -0.22060724 0.10707616 -0.008906514 3.105371e-07
-0.18277988 -0.33746335 -0.12448634 0.64108694 -0.11466761 -0.21620746 -0.08051776 0.889055
-0.3930747 -0.046091564 -0.5120385 0.12812991 0.48848292 3.517595 -0.014141208 0.15770938
-0.21597816 -0.1726407 0.36938664 -0.08998244 -0.021780698 -0.016680818 0.016287932 0.77572995
-0.07774005 -0.27797064 -0.47003254 0.07249086 0.32056496 -0.19940312 -0.9246669 -0.43965858
-0.40051675 0.1937035 -0.21694462 -0.5114255 -0.38547257 -0.35696998 0.28146964 -0.0022278195
-0.62292665 -0.10057461 0.56436014 0.013625301 -0.49420595 -0.10555902 -0.29322073 0.21113688
-0.73670197 0.039576434 -0.105588876 -0.29056922 -0.3990328 -0.8657511 -0.120074406 0.10823912
-0.15771735 -0.6101764 -0.80991113 -0.19895408 -0.2826142 -0.1939839 0.22456867 -0.37770724
-0.26410577 -0.7035904 -0.4544578 -0.24630867 -0.0072280657 1.4247087 -0.56335765 -1.1185805
-0.068522036 -0.097042754 -0.453042 0.97150886 -0.7193607 0.013101831 0.3332932 4.0906897
0.3191534 -0.0954938 -0.28510278 0.033502243 -0.2856549 -0.038512506 -0.65356356 -0.08935109
0.12873776 -0.13339967 0.022594571 0.7575733 -0.18108994 -0.17713918 -0.40052676 0.022541063
-0.028027883 1.918714 -0.058842327 0.17771 -0.105216056 -0.61526847 -0.019242879 0.04443132
-0.1930885 -0.1656581 -0.20666365 -0.012186221 -0.38974887 -0.074981965 0.7454422 -0.070101164
-0.27995196 -0.26610062 -0.49762195 -0.43627855 -0.0510734 0.27502313 -0.06561351 -0.017155625
-0.25793332 -0.59039015 0.071454786 -0.14775945 -0.12199422 -0.13428739 -0.05765912 4.355338
0.2880007 0.39658234 -0.87452924 0.021087082 -0.651032 -0.5482132 0.21690127 -0.3797357
-0.10635325 2.0011344 -0.16761461 -0.08202239 -0.7806252 -0.32108834 -0.40942335 -0.17751776
-0.16183849 -0.14308216 -0.033934284 0.005838513 -0.3498037 -0.10192809 -0.57605815 3.891994
-0.13406695 -0.02120366 -0.6189195 0.11806301 -0.61250925 0.45857015 -0.044003967 0.014439215
-0.033250514 -0.16200048 -0.47219232 -0.33041558 0.047729854 -0.18858424 -0.5736845 -0.07114433
-8.958779e-05 0.46350533 -0.31616732 0.02507737 -0.3207561 -0.07377202 -0.35949188 -0.018085519
0.6228555 -0.012476417 -0.09680409 -0.0052793855 -0.04991534 -0.1107206 0.21644653 0.068761565
0.6526614 -0.45925176 -0.24675839 3.4607103 0.2080831 1.3594924 0.048540007 -1.0858057
-0.13135117 0.20449919 -0.645496 -1.0607007 -0.22871912 0.009718097 -0.27331543 -0.033299748
-0.5152386 -0.11288235 0.073350556 -0.07324474 -0.9291341 -0.00013683517 0.00012480775 -0.44951925
-0.13594018 1.5891261 -0.07401738 0.3692278 -0.5766135 0.86225593 -0.038018234 0.0117316395
-0.0025968575 -0.0012228397 0.62679195 -0.571157 -0.29689008 -0.022242341 -0.86140245 0.2625343
00000000: 2611 c9be 4164 bb3c 1f4e 54bd e514 2abf
00000010: 7fe9 66bf ab44 0dbe bf36 2bbe 4ac2 06be
00000020: 9999 a73d 2e49 ae3f d8f7 6bbe 83ac a6be
00000030: 77b7 5dbe f6c7 c73d 5b13 113f bd1b 3cbf
00000040: 3691 0f3f ec3a bfbe ea68 583f 4779 29bf
00000050: 0f20 223f b4dd bbbe e6bb 89bf 1ef8 85be
00000060: dd32 dfbe d52c ab3d 7c65 83bd b492 6e3f
00000070: dde6 61be bf4a db3d a1ec 11bc e5b7 a634
00000080: a62a 3bbe ffc7 acbe b2f2 febd 461e 243f
00000090: dad6 eabd 7d65 5dbe 7fe6 a4bd 1c99 633f
000000a0: 1641 c9be 82ca 3cbd f514 03bf 7d34 033e
000000b0: 6f1a fa3e 4720 6140 86b0 67bc 917e 213e
000000c0: 6129 5dbe b9c8 30be 3f20 bd3e b748 b8bd
000000d0: 6f6d b2bc 36a6 88bc 456e 853c 3d96 463f
000000e0: 2d36 9fbd 2b52 8ebe 1ba8 f0be 1776 943d
000000f0: 1721 a43e 5530 4cbe f8b6 6cbf ee1a e1be
00000100: 8810 cdbe 365a 463e bb26 5ebe c8ec 02bf
00000110: a95c c5be c5c4 b6be ca1c 903e 9c00 12bb
00000120: 1f78 1fbf 10fa cdbd e879 103f a83c 5f3c
00000130: 9008 fdbe 542f d8bd 0721 96be 4434 583e
00000140: 8098 3cbf e61a 223d fb3e d8bd 7dc5 94be
00000150: 074e ccbe dda1 5dbf 92e9 f5bd 79ac dd3d
00000160: a880 21be 8534 1cbf 5656 4fbf 9eba 4bbe
00000170: cfb2 90be b7a3 46be 54f5 653e d862 c1be
00000180: df38 87be 801e 34bf b1ae e8be 5738 7cbe
00000190: 69d9 ecbb db5c b63f 3538 10bf a52d 8fbf
000001a0: 4855 8cbd 5abe c6bd 1ff5 e7be ceb4 783f
000001b0: 0628 38bf 10a9 563c 68a5 aa3e eee6 8240
000001c0: 1368 a33e 4192 c3bd fef8 91be a639 093d
000001d0: 5c41 92be 4abf 1dbd f14f 27bf b4fd b6bd
000001e0: d5d3 033e ec99 08be 4018 b93c 53f0 413f
000001f0: a46f 39be f963 35be d811 cdbe 09a8 b83c
00000200: bb9a e5bc 6c98 f53f a704 71bd 9cf9 353e
00000210: 847b d7bd 3c82 1dbf 3ea3 9dbc 9efd 353d
00000220: feb8 45be 47a2 29be a39f 53be b7a8 47bc
00000230: 2a8d c7be 2590 99bd 4dd5 3e3f 3391 8fbd
00000240: dd55 8fbe 573e 88be 4ec8 febe e75f dfbe
00000250: 5732 51bd d5cf 8c3e 6060 86bd f489 8cbc
00000260: d60f 84be cf23 17bf e356 923d 414e 17be
00000270: 1bd8 f9bd a282 09be f82b 6cbd ee5e 8b40
00000280: d474 933e d70c cb3e 26e1 5fbf d1be ac3c
00000290: 08aa 26bf b357 0cbf 5e1b 5e3e b86c c2be
000002a0: bccf d9bd 9612 0040 2aa3 2bbe 5bfb a7bd
000002b0: 0ed7 47bf b165 a4be f09f d1be 37c7 35be
000002c0: fdb8 25be 2184 12be adfe 0abd ff50 bf3b
000002d0: 7819 b3be adbf d0bd 8c78 13bf 6e16 7940
000002e0: d948 09be 4cb3 adbc 8271 1ebf 05cb f13d
000002f0: 68cd 1cbf b5c9 ea3e 813d 34bd 7592 6c3c
00000300: b131 08bd 74e3 25be 31c3 f1be 3b2c a9be
00000310: 6180 433d 3a1c 41be fddc 12bf 1eb4 91bd
00000320: 14e1 bbb8 9250 ed3e afe0 a1be 0f6f cd3c
00000330: 253a a4be c915 97bd 520f b8be 1528 94bc
00000340: 7573 1f3f e369 4cbc 3941 c6bd b2fe acbb
00000350: 0774 4cbd 7bc1 e2bd 29a4 5d3e ddd2 8c3d
00000360: d114 273f 0c23 ebbe 3bae 7cbe 477c 5d40
00000370: bc13 553e d903 ae3f e3d1 463d aefb 8abf
00000380: ec80 06be 3c68 513e 3a3f 25bf 0ac5 87bf
00000390: 5835 6abe a738 1f3c 00f0 8bbe 5165 08bd
000003a0: ade6 03bf dd2e e7bd d138 963d 5701 96bd
000003b0: bbdb 6dbf 697b 0fb9 d3de 0239 6327 e6be
000003c0: e733 0bbe 7c68 cb3f 6d96 97bd 6d0b bd3e
000003d0: f19c 13bf cebc 5c3f 02b9 1bbd 1036 403c
000003e0: 0a30 2abb b147 a0ba 7075 203f 5837 12bf
000003f0: fa01 98be 9235 b6bc df84 5cbf e56a 863e

linear2.bias f4 [3]
1.3994193 -0.025486367 -0.09324548
00000000: 2c20 b33f c9c8 d0bc 7cf7 bebd
