model/model.pth (torch, 18176 bytes, 4 tensors)

weight f4 [256, 11]
0	0x3e65b85b	0.22433607
1	0x3fa95f97	1.3232297
2	0x3edcef8e	0.43151516
3	0xbf5152bc	-0.8176687
4	0xbed0f834	-0.40814364
5	0x3d9d89b6	0.07692282
6	0xbee23d57	-0.44187424
7	0xbdb881d2	-0.09009136
8	0xbf53dbc2	-0.827572
9	0xbf800c71	-1.0003797
10	0xbf8639be	-1.0486372
11	0xbf0e2078	-0.55518293
12	0xbfe4559e	-1.7838628
13	0xbea7a6a9	-0.3274434
14	0xbf6f93ab	-0.935847
15	0xbf6fee57	-0.9372305
16	0x3f24a329	0.6431146
17	0xbf78a581	-0.9712754
18	0xc00695c1	-2.1028903
19	0xc000351d	-2.0032418
20	0x3ce408f0	0.027836293
21	0xbfc7d5ff	-1.5612181
22	0xbf09a21d	-0.5376299
23	0xbea32ffe	-0.31872553
24	0x3e91b688	0.28459573
25	0xbe915c24	-0.2839061
26	0xbea3fdd6	-0.320296
27	0xbf195d01	-0.5990754
28	0xbe65866e	-0.22414562
29	0x3e386103	0.18005757
30	0xbf693262	-0.91092503
31	0xbf231c76	-0.637153
32	0xbed4c243	-0.4155446
33	0xbe2081c3	-0.156745
34	0xbe57427f	-0.2102146
35	0xbe7277f9	-0.23678578
36	0x3e1cdc37	0.1531838
37	0x3ddbd193	0.107333325
38	0x3e2f801a	0.1713871
39	0x3a8596b1	0.0010192004
40	0xbed5349e	-0.41641706
41	0xbdd97742	-0.1061845
42	0xbf09cc06	-0.5382694
43	0xbd1c8b17	-0.038218584
44	0xbea6b9e5	-0.325637
45	0x3f30974e	0.6898087
46	0xbdb19282	-0.08670522
47	0xbe928ce2	-0.2862311
48	0xbe7ed55a	-0.24886075
49	0xbf0f49f2	-0.55972207
50	0xbf6a04a6	-0.9141334
51	0xbe06f7c2	-0.1318045
52	0xbf03bb8f	-0.51458067
53	0xbed563ac	-0.41677606
54	0xbefd811d	-0.49512568
55	0xbc0aa510	-0.0084622055
56	0xbcf56fa6	-0.029960465
57	0x3e881358	0.26577258
58	0xbe53e522	-0.20692876
59	0xbe5d5567	-0.2161461
60	0xbd47085d	-0.04859196
61	0xbe11ff09	-0.14257444
62	0xbcff7ed5	-0.031188408
63	0x3e1b5ce9	0.15172161
64	0xbe9fe49b	-0.312291
65	0xbe108ea8	-0.14116919
66	0xbd2de6aa	-0.042456307
67	0xbe7158f0	-0.23569083
68	0x3d81e0bc	0.06341693
69	0x3d44bb1d	0.048030008
70	0xbe876f2b	-0.26452002
71	0xbe75c1f7	-0.23999773
72	0xbe7b3d66	-0.2453514
73	0xbea5bbf6	-0.32369965
74	0xbbf20c84	-0.007386746
75	0xbe97990a	-0.29608947
76	0xbe87b5e8	-0.2650597
77	0xbedc20f5	-0.42993894
78	0x3e32c8a8	0.17459357
79	0x3d6bf0fd	0.05760287
80	0x3da546a0	0.08070111
81	0xbe8c58f1	-0.27411607
82	0xbce37b4f	-0.027768759
83	0xbe39be78	-0.18139064
84	0xbd69cea4	-0.057081833
85	0xbe2944e8	-0.16530192
86	0xbe9d5455	-0.30728403
87	0xbd7b703e	-0.06138634
88	0xbf867478	-1.0504293
89	0x3ffb0582	1.9611056
90	0xbfe25359	-1.7681686
91	0xbfe57589	-1.7926494
92	0xbdb3b921	-0.08775545
93	0xbfc6f3a6	-1.5543106
94	0xbf3df262	-0.7419797
95	0xc0113de2	-2.269402
96	0xbfd69798	-1.6765013
97	0x3efafb5b	0.49019894
98	0xbfa85e0d	-1.3153702
99	0xbd1e1049	-0.03858975
100	0x3d96923e	0.07352112
101	0xbe3ea190	-0.18616319
102	0x3d8a7e21	0.067623384
103	0xbe52a1ca	-0.2056953
104	0x3dbd30bd	0.09237812
105	0xbcce6a89	-0.025197284
106	0x3a752b17	0.0009352429
107	0xbd8b082e	-0.067886695
108	0x3b8cba8d	0.0042946995
109	0xbc0f34c4	-0.008740608
110	0x3d9950c2	0.074861065
111	0xbe27611a	-0.16345635
112	0xbe992ce4	-0.2991706
113	0xbe41bd7b	-0.18919937
114	0xbef29c24	-0.4738475
115	0x3d436271	0.047701303
116	0xbe82113d	-0.25403777
117	0xbe909ccb	-0.28244624
118	0xbe8ea458	-0.2785976
119	0xbf4757af	-0.7786817
120	0xbf4071a3	-0.75173396
121	0xbea42cee	-0.3206553
122	0x3cbe393c	0.02322065
123	0x3e377f70	0.17919707
124	0x3da6aade	0.08138059
125	0xbdffd3c5	-0.12491564
126	0xbf016233	-0.50540465
127	0xbe9e1939	-0.30878618
128	0xbf06f20f	-0.527131
129	0xbeb8de49	-0.3610709
130	0xbd410c5c	-0.047130927
131	0xbe9d3bb5	-0.30709615
132	0xbe7ce462	-0.24696496
133	0xbe92d936	-0.28681344
134	0xbefd44f5	-0.49466673
135	0xbe2e7ca9	-0.17039742
136	0xbcdf266a	-0.027239997
137	0x3e4f2ebe	0.20232674
138	0x3d445965	0.047936816
139	0xbe814897	-0.25250694
140	0x3e063d83	0.13109402
141	0xbea99fe7	-0.33129808
142	0xbf1568b6	-0.583629
143	0xbe7b44da	-0.24537984
144	0x3d768702	0.060187347
145	0xbe8250c6	-0.2545225
146	0x3e4456c6	0.19173726
147	0xbd3ebc23	-0.04656614
148	0xbe4118e6	-0.18857154
149	0xbdeda2c0	-0.11603308
150	0xbe04ce9f	-0.12969445
151	0xbe76b46c	-0.24092263
152	0xbd97215c	-0.0737941
153	0xbe8e55d3	-0.27799854
154	0xbd458c15	-0.048229296
155	0xbe86092f	-0.26178882
156	0xbe03dc49	-0.12877001
157	0xbe7fa9de	-0.24967143
158	0xbe4ae865	-0.19815214
159	0xbe3d0b7e	-0.18461415
160	0xbd23a9ce	-0.03995686
161	0xbd3b0cfa	-0.045666672
162	0xbe098cac	-0.13432568
163	0xbe9a47be	-0.3013286
164	0x3d96b239	0.07358212
165	0x3d88f171	0.06686676
166	0x3d67246e	0.056431226
167	0xbde7a298	-0.11310309
168	0xbe0dcc48	-0.13847458
169	0x3d23fcd2	0.04003603
170	0x3dea67b3	0.1144556
171	0xbe0d5a2d	-0.1380393
172	0xbe844187	-0.25831243
173	0xbe1036d5	-0.14083417
174	0xbe4104b1	-0.18849446
175	0xbeb1650d	-0.34647408
176	0xbe097dae	-0.13426849
177	0x3d72c799	0.059272382
178	0x3d8767db	0.06611606
179	0xbe4faf1e	-0.20281646
180	0x3d352742	0.044226892
181	0xbec4cd1e	-0.38437742
182	0xbe6778ed	-0.22604723
183	0xbf0bfba2	-0.54680836
184	0xbf21036c	-0.62895846
185	0xbdf059f2	-0.11735906
186	0x3a3d8bb5	0.0007230596
187	0xbe7cd7b6	-0.24691662
188	0xbdd79179	-0.105257936
189	0xbe87fad5	-0.26558557
190	0xbe8eeb5c	-0.2791394
191	0xbe958042	-0.29199415
192	0xbc168f1a	-0.0091893915
193	0xbdd6cead	-0.10488639
194	0x3e4e9d86	0.20177278
195	0xbe2e5e33	-0.17028122
196	0x3c1e9f66	0.009681558
197	0x3bea710a	0.0071545886
198	0x3d9aaa11	0.07551969
199	0xbeca79f0	-0.39546156
200	0x3e86a99e	0.26301283
201	0xbd639c77	-0.05556914
202	0xbdea66d5	-0.11445395
203	0xbe643491	-0.22285677
204	0xbe40a092	-0.18811253
205	0xbd53251e	-0.05154907
206	0xbe7c43ed	-0.24635287
207	0xbe8a1eab	-0.26976523
208	0xbf0b5dd9	-0.54440075
209	0xbe045257	-0.12922035
210	0x3e1af763	0.15133433
211	0xbe3eb3cb	-0.18623273
212	0xbe925c9c	-0.2858628
213	0xbe21d040	-0.15802097
214	0xbe9a1c22	-0.3009959
215	0xbe6b1467	-0.22957002
216	0x3d941bc0	0.072318554
217	0xbe8d0535	-0.27543035
218	0x3d756891	0.059914175
219	0x3c860469	0.016359525
220	0x3f179eca	0.5922667
221	0x3ca52eac	0.020163856
222	0x3f1b7841	0.6073037
223	0xbf14fe4e	-0.5820054
224	0xbdc09966	-0.094042584
225	0xbf42c87e	-0.76087177
226	0xbe21d8cb	-0.15805356
227	0xbf134ec3	-0.57542056
228	0xbe41a7f3	-0.18911724
229	0xbf9ad668	-1.2096682
230	0xbe7434ef	-0.23848318
231	0x3e8e3907	0.27777883
232	0xbeeb4ee2	-0.4595862
233	0xbeed2a58	-0.46321368
234	0xbd4176a3	-0.04723228
235	0xbf04c345	-0.5186046
236	0xbd87889a	-0.066178516
237	0xbe42422c	-0.18970555
238	0xbf7c3147	-0.9851269
239	0xbfac0de8	-1.3441744
240	0x3d316770	0.043311536
241	0xbe8b0f13	-0.27159938
242	0xbe7bb30e	-0.24580023
243	0x3cede3d3	0.0290393
244	0xbdd47a4e	-0.1037489
245	0xbe5788ef	-0.2104833
246	0xbe467faf	-0.19384645
247	0xbe084176	-0.13306221
248	0xbe29ed16	-0.16594347
249	0xbe799715	-0.2437404
250	0xbebc22ec	-0.36745393
251	0xbebbd805	-0.36688247
252	0xbe493dd8	-0.19652498
253	0x3e7c26dd	0.246242
254	0x3cb5090d	0.022099042
255	0x3e66aedc	0.22527641

bias f4 [256]
0	0xbebd9822	-0.3703013
1	0x3e2179cf	0.15769123
2	0xbf31ac34	-0.69403386
3	0xbf25237e	-0.6450728
4	0xbf2983ff	-0.66217035
5	0xbf067f4c	-0.5253799
6	0xbeb97aec	-0.36226594
7	0xbe816fd8	-0.25280643
8	0x3eb032c9	0.34413746
9	0xbeaaacf7	-0.33335087
10	0xbf412498	-0.7544646
11	0xbf021103	-0.5080721
12	0xbeaed9a4	-0.34150422
13	0xbe15d20a	-0.14630905
14	0xbe55399e	-0.2082276
15	0xbd4c24bc	-0.04983972
16	0xbe21bba8	-0.15794241
17	0xbe6968de	-0.2279391
18	0xbe869aa5	-0.2628986
19	0xbe355315	-0.17707475
20	0xbf4707e1	-0.777464
21	0xbf1130f2	-0.5671531
22	0xbe6c200d	-0.23059101
23	0xbf2fef50	-0.68724537
24	0xbf17ea6e	-0.59342086
25	0xbe325445	-0.17414959
26	0xbedf1fa4	-0.43578827
27	0xbeb3615a	-0.3503521
28	0xbe45798a	-0.19284645
29	0xbf07338e	-0.5281304
30	0xbeddb0e8	-0.4329903
31	0xbdb75934	-0.08952561
32	0xbea7559c	-0.32682502
33	0xbe800f4e	-0.25011677
34	0xbec7366d	-0.3890871
35	0xbe20b19a	-0.1569275
36	0xbf045403	-0.5169069
37	0xbea3dbd4	-0.32003653
38	0xbf069e1b	-0.52585
39	0xbe2c3718	-0.16817892
40	0xbea8a50f	-0.3293843
41	0xbe3a1f29	-0.18175949
42	0xbf331dd1	-0.6996737
43	0xbf338689	-0.7012716
44	0xbe71afcd	-0.23602219
45	0xbf297e78	-0.662086
46	0xbe9711ad	-0.29505673
47	0xbea702e5	-0.32619396
48	0xbe42f112	-0.19037274
49	0x3e916d0a	0.28403503
50	0xbe3b46dd	-0.18288751
51	0xbe1e8027	-0.15478574
52	0xbeebbeb8	-0.46043944
53	0xbebf5639	-0.3737047
54	0xbedc5647	-0.43034574
55	0xbea59cdd	-0.3234624
56	0xbf167e24	-0.58786225
57	0xbf731571	-0.9495459
58	0xbf308798	-0.689569
59	0xbf13ed85	-0.577843
60	0x3e25e8cb	0.16202085
61	0xbdbceb08	-0.09224516
62	0xbdebbf05	-0.115110435
63	0xbe901c44	-0.28146565
64	0xbea4c82e	-0.32183975
65	0xbf2f009f	-0.6836032
66	0xbf642cb5	-0.8913072
67	0xbd8a9cce	-0.06768189
68	0xbe5ff2bf	-0.21869944
69	0xbe49c02a	-0.19702211
70	0xbd94afca	-0.072600916
71	0xbedd0599	-0.43168333
72	0xbea519ec	-0.3224634
73	0xbf2720f0	-0.65284634
74	0xbf56a578	-0.83846235
75	0xbf384070	-0.71973324
76	0xbe15e10e	-0.14636633
77	0xbec23853	-0.37933597
78	0xbf6088d4	-0.87708783
79	0xbefeea7b	-0.4978827
80	0xbefa2dfe	-0.48863214
81	0xbe554e19	-0.20830573
82	0xbf83eb5c	-1.0306201
83	0xbe3b5fe0	-0.18298292
84	0xbf050cad	-0.51972467
85	0xbf4a6c5b	-0.7907159
86	0xbecdb6ad	-0.40178433
87	0xbea093e4	-0.31362832
88	0xbf12a913	-0.57289237
89	0xbde5b1af	-0.11215531
90	0xbe27a0e6	-0.16369972
91	0xbdde6d83	-0.108607315
92	0xbebc684d	-0.36798325
93	0xbf09ecba	-0.5387684
94	0xbdecde8d	-0.11565886
95	0xbf26b95a	-0.65126574
96	0xbeb1ac90	-0.34701967
97	0xbdef9f7c	-0.11700341
98	0xbe8f7f24	-0.28026688
99	0xbecdca75	-0.40193525
100	0xbe5f69e2	-0.21817735
101	0xbec14394	-0.3774687
102	0xbe958c85	-0.2920877
103	0xbf01ad26	-0.5065483
104	0xbdd2e43f	-0.10297441
105	0x3d87e93a	0.06636281
106	0xbe32e57c	-0.17470354
107	0xbeaf0e18	-0.3419044
108	0xbe0d0158	-0.13770044
109	0xbed31076	-0.41223496
110	0xbe4259b2	-0.18979529
111	0xbe97ad0b	-0.2962421
112	0xbf60a8ce	-0.87757576
113	0xbe3c90b2	-0.18414572
114	0xbec95921	-0.39325812
115	0xbec35e38	-0.3815782
116	0xbd372d56	-0.04472097
117	0xbec0df01	-0.37670138
118	0xbef5f3fe	-0.48037714
119	0xbe1eaa49	-0.15494646
120	0xbec13fe5	-0.3774406
121	0xbdd8b9b4	-0.10582295
122	0xbeb87775	-0.36028638
123	0xbe13ea56	-0.14444861
124	0xbe071516	-0.13191637
125	0xbe1e8bdd	-0.15483041
126	0xbdfa5a93	-0.12224307
127	0xbe92f604	-0.2870332
128	0xbf16066a	-0.5860354
129	0xbe8cdb96	-0.2751128
130	0xbe4c43cd	-0.19947739
131	0xbd35d6a7	-0.04439416
132	0xbeed59f1	-0.46357682
133	0xbe4bfcaf	-0.1992061
134	0xbddcebfc	-0.10787198
135	0xbeccbcd7	-0.39987823
136	0xbebea4ca	-0.372351
137	0xbf72a7fe	-0.94787586
138	0xbe9550ef	-0.2916331
139	0xbd17dd35	-0.037076194
140	0xbee195da	-0.4405964
141	0xbf09be56	-0.53806055
142	0xbef22f98	-0.47301936
143	0xbec792e5	-0.3897926
144	0xbf3c849f	-0.73639864
145	0xbf1a19cc	-0.6019561
146	0xbf17fc9d	-0.5936983
147	0xbf4ca250	-0.7993517
148	0xbdb4f965	-0.08836631
149	0xbec87ae5	-0.3915626
150	0xbebba3ec	-0.366485
151	0xbef2b445	-0.4740316
152	0xbf081b64	-0.53166795
153	0xbe1759a2	-0.14780286
154	0xbec575ee	-0.38566536
155	0xbeba3f0f	-0.36376235
156	0xbe6ef77e	-0.23336598
157	0xbecb4c17	-0.3970649
158	0xbf081280	-0.5315323
159	0xbf8c6870	-1.0969372
160	0xbe46d4d4	-0.19417125
161	0xbe2a278b	-0.16616647
162	0xbeb02654	-0.34404242
163	0xbf3ee48d	-0.7456749
164	0xbef76b71	-0.4832416
165	0xbf18d6b0	-0.5970259
166	0xbe4504bd	-0.19240089
167	0xbf4bd1c4	-0.7961695
168	0xbf091995	-0.5355466
169	0x3d21b307	0.039477374
170	0xbe708bb0	-0.23490787
171	0xbf818dd9	-1.0121413
172	0xbe9dea79	-0.3084295
173	0xbf90f7b9	-1.1325599
174	0xbed6b054	-0.41931403
175	0xbf5ce2a2	-0.86283314
176	0xbedc4393	-0.43020305
177	0xbf4ae60f	-0.7925729
178	0xbf1cc96b	-0.6124484
179	0xbef0710e	-0.46961254
180	0xbe8a8718	-0.27056193
181	0xbe6bf740	-0.23043537
182	0xbddb0cf3	-0.10695829
183	0xbec3b0a4	-0.38220704
184	0xbecf8401	-0.40530398
185	0xbe798508	-0.24367154
186	0xbf332aba	-0.6998707
187	0xbe89a76e	-0.2688555
188	0xbe409fc2	-0.18810943
189	0xbf56a256	-0.83841455
190	0xbece3218	-0.40272593
191	0xbd655ac5	-0.055994768
192	0xbdd7645d	-0.1051719
193	0xbf3840c1	-0.71973807
194	0xbe685840	-0.22689915
195	0xbf8cf688	-1.1012735
196	0xbf8fb04e	-1.1225679
197	0xbf2e6e1a	-0.6813675
198	0xbefff443	-0.49991044
199	0xbea7c0df	-0.32764336
200	0xbec807a5	-0.39068332
201	0xbe8ed42a	-0.27896243
202	0xbe8838cd	-0.26605836
203	0xbeb3272b	-0.3499082
204	0xbe9e2133	-0.30884704
205	0xbf0262a8	-0.5093179
206	0x3c491b02	0.012274506
207	0xbe3c9b59	-0.18418635
208	0xbecdc384	-0.4018823
209	0xbdb0aa92	-0.08626284
210	0xbe23fb88	-0.1601392
211	0xbf1ea175	-0.61965114
212	0xbf957d05	-1.1678778
213	0xbef27e85	-0.47362152
214	0xbd05ee2f	-0.032697853
215	0xbe8ffd61	-0.28123
216	0xbd25ba38	-0.040460795
217	0xbda4e8d2	-0.080522195
218	0xbe051ef7	-0.13000093
219	0xbe99eef6	-0.30065125
220	0xbec9aac2	-0.3938809
221	0xbe37d8c2	-0.1795378
222	0xbf384aee	-0.71989334
223	0xbea50ddd	-0.3223714
224	0xbee43ed8	-0.44579196
225	0xbf391c90	-0.7230921
226	0xbe6bbdeb	-0.23021667
227	0xbe0df1c4	-0.13861758
228	0xbe45a72d	-0.19302054
229	0xbecac526	-0.39603537
230	0xbef20f8d	-0.4727749
231	0xbe38fa6a	-0.18064275
232	0xbf75b957	-0.9598593
233	0xbe6b6aa7	-0.22989903
234	0xbed7199f	-0.42011735
235	0xbef21b06	-0.47286242
236	0xbeb23572	-0.348064
237	0xbedf2b7f	-0.43587872
238	0xbdbe099e	-0.09279178
239	0xbf1414a3	-0.5784399
240	0xbed6ffad	-0.4199194
241	0xbe88d80a	-0.26727325
242	0xbe3b04d6	-0.18263564
243	0xbeef3ce2	-0.46726137
244	0xbf3c2f0d	-0.73509294
245	0xbed395cc	-0.41325223
246	0xbf121fd5	-0.5707982
247	0xbf010042	-0.5039102
248	0xbe00dcb4	-0.12584192
249	0xbeb56f1d	-0.35436335
250	0xbe1b47fb	-0.15164177
251	0xbe324780	-0.17410088
252	0xbf0d7973	-0.5526344
253	0xbeb11915	-0.3458945
254	0xbe9713a6	-0.29507178
255	0xbe37d108	-0.17950833

weight f4 [3, 256]
0	0x3ea669a6	0.32502478
1	0x3f49bfab	0.7880809
2	0xbd84bd15	-0.06481377
3	0x3e2461bb	0.16052906
4	0x3e0e43ef	0.13893102
5	0xbd1b171c	-0.037863836
6	0xbcc36e60	-0.023856342
7	0x3b6c8201	0.003608823
8	0x3e8f950d	0.28043404
9	0xbd76e2e6	-0.06027498
10	0xbe575fd8	-0.21032655
11	0xbe1f40bb	-0.15552036
12	0x3cbde6fb	0.02318143
13	0x3d834d7a	0.06411262
14	0x3e2a3d02	0.16624835
15	0xbd4ffda0	-0.050778985
16	0x3d843896	0.064561054
17	0xbb676dc0	-0.0035313219
18	0x3e516a85	0.2045079
19	0x3db3614a	0.08758791
20	0xbeea4e17	-0.45762703
21	0xbe74b8e8	-0.23898661
22	0x3e2a34e0	0.16621733
23	0xbdc2c0e1	-0.09509445
24	0xbd0f587a	-0.034996487
25	0xbb02bebb	-0.001995011
26	0x3e40451a	0.1877636
27	0xbcebbfcd	-0.028777981
28	0x3d1a967a	0.037741162
29	0x3e38e796	0.18057093
30	0xbe1a7acc	-0.15085906
31	0xbe049333	-0.12946777
32	0xbceabeb9	-0.028655397
33	0xbd121cc4	-0.035671964
34	0x3cebd361	0.028787317
35	0xbd0f11ec	-0.0349292
36	0xbe5bf41f	-0.21479844
37	0x3d371b29	0.044703636
38	0xbeb62e12	-0.35582024
39	0xbd003bda	-0.03130708
40	0x3d253df0	0.04034227
41	0xbcb40e61	-0.021979513
42	0xbe48cd9c	-0.19609684
43	0xbddf787c	-0.109116524
44	0xbda005ea	-0.07813628
45	0xbe009082	-0.12555125
46	0x3d877534	0.066141516
47	0xbd561830	-0.05226916
48	0xbd165821	-0.03670514
49	0xbf024d77	-0.5089945
50	0xbc6907b8	-0.014223032
51	0x3dfdcc57	0.1239249
52	0xbe0b992b	-0.13632648
53	0xbe01d184	-0.1267758
54	0xbbcb72e0	-0.0062087625
55	0x3d557fc6	0.052123807
56	0x3e94e8d8	0.29083896
57	0xbf55ca67	-0.83511966
58	0xbee99876	-0.4562413
59	0xbda3d766	-0.08000068
60	0x3d6c5150	0.057694733
61	0xbc99bf01	-0.018767836
62	0xbd4fe89c	-0.050758943
63	0x3dc7e429	0.09760315
64	0xbe925f4f	-0.2858834
65	0xbe922a18	-0.2854774
66	0x3debad46	0.11507659
67	0xc04d5dba	-3.2088456
68	0xbb87e745	-0.0041474425
69	0xbe3e1bba	-0.18565264
70	0x3e087e7d	0.13329501
71	0x3db6b11e	0.08920501
72	0x3ce8677a	0.028369654
73	0x3de9f33c	0.114233464
74	0x3e5ae8c3	0.21377854
75	0xbf1079a2	-0.56435597
76	0x3c76c40a	0.015061388
77	0xbe980044	-0.29687703
78	0xbde61ec6	-0.11236338
79	0xbd5afbc1	-0.053462747
80	0xbe7a6873	-0.24453907
81	0xbdda3f01	-0.10656548
82	0xbe9a2db2	-0.30112988
83	0xbc428579	-0.011872643
84	0xbd68e409	-0.056858096
85	0xbdb8610c	-0.09002885
86	0x3c6db507	0.014508492
87	0xbe182baa	-0.14860407
88	0xbe063594	-0.13106376
89	0x3c5a621c	0.013329055
90	0xbd019432	-0.03163547
91	0x3ce8e15d	0.028427774
92	0x3d2c9d52	0.04214222
93	0x3d51b220	0.051195264
94	0x3d07cfba	0.033157088
95	0xbf1462fc	-0.5796354
96	0xbe1fd9b9	-0.15610398
97	0xbe242329	-0.16029038
98	0x3e482055	0.19543584
99	0xbcf2c0f8	-0.02963303
100	0x3e22d526	0.15901622
101	0x3e87d20e	0.26527447
102	0xbc06c0f3	-0.008224714
103	0xbc92e1fc	-0.017930023
104	0xbd4bf85e	-0.04979741
105	0xbcd86cbf	-0.026419042
106	0x3e1449bc	0.14481252
107	0x3e4d500e	0.2005007
108	0x3e834514	0.2563864
109	0xbcdce810	-0.026966125
110	0xbc5e59de	-0.013571231
111	0xbd737458	-0.059437126
112	0xbdf728db	-0.120683394
113	0xbe423224	-0.1896444
114	0x3e93dbb2	0.28878552
115	0x3e5a5c47	0.21324264
116	0xbdef3f73	-0.11682024
117	0x3ca76f34	0.020438768
118	0x3c96e659	0.018420385
119	0xbcf806cf	-0.030276684
120	0x3ea643b6	0.32473534
121	0xbcc68ecd	-0.024238015
122	0xbc9e4668	-0.019320682
123	0x3e9b661e	0.30351347
124	0xbd29b77a	-0.041434743
125	0x3e0922fa	0.13392249
126	0xbe96b205	-0.29432693
127	0x3d13ea10	0.03611189
128	0xbebb4f39	-0.3658388
129	0x3ecfe36b	0.40603194
130	0x3e26a6d5	0.16274579
131	0x3d4c281c	0.04984294
132	0xbe946d3b	-0.28989586
133	0xbdbd5c69	-0.092461415
134	0x3d156b59	0.036479328
135	0xbc692eef	-0.014232381
136	0xbe9d9f3d	-0.30785552
137	0x3df0ac31	0.11751593
138	0x3d9ce9af	0.07661759
139	0xbc0165fd	-0.007897851
140	0x3e3aee38	0.18254936
141	0xbde1bbb7	-0.11022132
142	0xbd9750a7	-0.0738843
143	0xbdc39fe3	-0.0955198
144	0xbe0a568c	-0.13509578
145	0x3e84963f	0.2589588
146	0x3d38799d	0.045037854
147	0xbec283f3	-0.37991294
148	0xbd477db4	-0.048703864
149	0x3eb23df5	0.34812894
150	0xbdb268a7	-0.08711367
151	0xbbda9279	-0.006670293
152	0x3ce04f9a	0.027381707
153	0xbca5004c	-0.020141743
154	0xbe2a827f	-0.16651343
155	0xbc841a71	-0.01612589
156	0xbe49bc2e	-0.19700691
157	0x3e1e5589	0.15462317
158	0x3d534a86	0.051584743
159	0xbe9ff1c3	-0.31239137
160	0x3d2c3c3b	0.042049628
161	0xbe05f1e5	-0.13080557
162	0x3d0879f2	0.03331942
163	0xbe92bb17	-0.28658363
164	0xbc1b32d1	-0.009472565
165	0x3d462c6d	0.04838221
166	0xbe3fd520	-0.18733644
167	0xbe8bda9f	-0.27315232
168	0x3e1e24b6	0.15443692
169	0x3b49795d	0.0030742504
170	0xbd155345	-0.036456365
171	0x3e288568	0.1645714
172	0x3e1c6349	0.1527225
173	0xbda792ad	-0.08182273
174	0x3d3d8d86	0.046277545
175	0xbe90d853	-0.28290042
176	0xbdd19116	-0.10232751
177	0x3d16fd09	0.036862407
178	0x3e78dae5	0.24302252
179	0x3e3d5085	0.18487747
180	0x3e46cd12	0.19414166
181	0x3d9e6e4c	0.07735881
182	0x3d45ac86	0.048260234
183	0x3d97b751	0.07408012
184	0xbd05eb96	-0.032695375
185	0x3d0911eb	0.033464354
186	0xbd628d10	-0.05531031
187	0x3e22e3df	0.15907238
188	0xbccee99f	-0.025257884
189	0xbd2d53d3	-0.04231627
190	0x3d4ae574	0.04953523
191	0xbcbfd4cd	-0.023416901
192	0x3d3e9bd1	0.046535317
193	0xbee21d00	-0.4416275
194	0xbcd9bb0f	-0.026578454
195	0xbd362e55	-0.04447778
196	0xbe7a3557	-0.2443441
197	0xbe1c2d5e	-0.15251681
198	0x3e158c78	0.14604366
199	0xbe507456	-0.20356879
200	0x3e5d8e4a	0.2163631
201	0x3d377ec2	0.04479862
202	0x3c792f4a	0.0152090285
203	0xbc30450f	-0.010758652
204	0x3c7b2185	0.015327816
205	0x3d1569eb	0.036477964
206	0x3fa96ea0	1.3236885
207	0xbdaaced7	-0.08340233
208	0xbc1b8e00	-0.009494305
209	0xbde2e623	-0.11079051
210	0xbe31b9a3	-0.17355971
211	0xbdd80001	-0.10546876
212	0xbe81b912	-0.2533651
213	0x3d6b0f28	0.0573875
214	0xbe3d35f6	-0.18477616
215	0xbd96bf88	-0.073607504
216	0x3d342f51	0.043990437
217	0xbd3e9e09	-0.046537433
218	0x3d85d0cf	0.06533968
219	0x3cff8936	0.031193357
220	0xbd2496c4	-0.040182844
221	0x3dfe9410	0.124305844
222	0x3e378754	0.17922717
223	0x3d1607a6	0.036628388
224	0xbe00f47f	-0.12593268
225	0x3b425194	0.0029650675
226	0x3e9df9ca	0.30854636
227	0xbc7856aa	-0.015157381
228	0xbca45ef5	-0.02006481
229	0xbd2ad696	-0.04170855
230	0xbce4ed62	-0.027945224
231	0x3d3479b8	0.044061393
232	0xbd9fa92a	-0.07795937
233	0xbd703ad3	-0.05864985
234	0xbd457d0c	-0.048214957
235	0xbc7b6592	-0.0153440405
236	0x3d07b176	0.033128224
237	0x3e22319b	0.15839235
238	0x3d8a80ce	0.06762849
239	0xbda07e28	-0.078365624
240	0xbe728c02	-0.23686221
241	0xbe235352	-0.15949753
242	0xbdf9f820	-0.12205529
243	0xbc9f68da	-0.019459177
244	0xbe3d4beb	-0.18485992
245	0xbe44127d	-0.19147678
246	0xbef096e7	-0.4699013
247	0xbd2e6280	-0.042574406
248	0x3e357c87	0.17723285
249	0xbd798552	-0.06091816
250	0x3d02244e	0.031772904
251	0xbdcdbfef	-0.10046374
252	0xbe386d82	-0.18010524
253	0xbecdbb4b	-0.40181956
254	0xbdba3166	-0.09091453
255	0x3e651c14	0.22373992

bias f4 [3]
0	0xc020631b	-2.506049
1	0xc02a36eb	-2.659602
2	0xc0220387	-2.5314653
