model/model.pth (torch, 17216 bytes, 4 tensors)

linear1.weight f4 [256, 11]
-0.26393375 -0.04268452 0.13897604 0.20967236 -0.012992264 0.25723192 0.033901144 0.08891065
0.018839467 -0.0755799 -0.21430343 -0.029492129 -0.19753176 -0.14024743 0.27425903 0.19611415
-0.11344588 -0.09860935 0.27890298 -0.2834679 -0.22585014 -0.023490766 -0.14761408 -0.1970001
-0.09226028 -0.20070824 -0.1567503 -0.20821509 -0.09906157 -0.19134755 0.19236189 -0.29880768
-0.043177117 0.22767848 -0.18180689 0.13069952 -0.26304293 -0.0576521 0.29364744 0.2768733
0.23391473 -0.21941516 0.27265358 -0.18624687 -0.030088414 -0.13707441 -0.2902831 0.0636682
0.21399827 -0.053868137 -0.08680846 0.1538745 0.19225669 0.21952666 -0.27179578 -0.18333177
-0.088157065 -0.24474771 -0.18438731 0.23926114 -0.19705254 -0.12022097 0.19314031 -0.021559779
0.27973446 0.023148159 -0.020169057 0.09368233 -0.28816533 0.0033630258 0.16074662 -0.1455313
-0.02880166 -0.09017848 -0.079236455 -0.21299852 0.14851885 0.07924882 -0.053827018 0.077339604
-0.117602326 0.29513323 -0.24796602 0.036161773 -0.23677596 -0.18326849 -0.18725693 -0.13956517
0.2765394 -0.20485453 -0.16597511 0.18769015 0.24756119 0.06709392 0.22858894 -0.035990894
-0.20497613 0.08403044 -0.2211282 -0.21952474 -0.22264561 0.022288224 0.1849171 0.13846195
0.20829178 0.29108408 0.1333192 -0.2533339 -0.24945268 0.2057294 -0.2074277 0.19985025
-0.17063054 0.048815284 0.22258024 0.19434378 -0.09699491 0.15085812 -0.27918094 -0.19046488
-0.040176585 -0.0033647595 0.18610707 -0.115843266 -0.09497429 -0.068054974 -0.21540366 0.020427098
0.032275703 -0.04590708 0.025582384 0.29291376 -0.26012346 0.18268761 0.024283024 0.167925
-0.07420933 -0.06270596 -0.22720626 -0.033096783 -0.23401494 -0.080537684 -0.28084534 0.104322776
-0.14669614 0.057861865 -0.12710765 -0.10439887 -0.27924076 -0.1717301 -0.016777271 0.14314526
0.073256075 -0.11471685 -0.014141755 -0.17501418 -0.24992217 -0.21894574 -0.19945535 -0.29011142
-0.27587804 -0.115010045 -0.06749584 -0.13181 0.06344628 -0.19187264 -0.058627952 -0.22512455
0.18304071 -0.05324701 0.2683662 -0.17273152 -0.004149584 -0.2766188 0.105576016 0.02398948
0.007479551 0.19248642 -0.07528848 -0.29566112 -0.14433378 -0.24915914 0.2891933 0.10657555
-0.22729841 -0.29283446 -0.1696282 -0.29212868 -0.06727694 0.025550706 -0.15796183 -0.08168546
0.23089077 -0.29246792 0.14956574 -0.03421056 0.110397525 0.15628356 -0.2616578 0.03122696
-0.08545405 0.26300263 -0.120498486 -0.12451075 0.05178015 -0.24683481 -0.2355085 -0.07324335
-0.02626941 -0.14910202 -0.25488842 0.057091124 -0.19896898 0.10091568 0.06375895 -0.101534456
-0.059744596 -0.03510276 -0.23014636 -0.13571973 -0.2032109 -0.21212597 0.12514824 0.114158735
-0.28835586 0.2331049 -0.26632082 -0.22249737 0.13378133 0.10415576 -0.08243554 0.2913277
-0.08001899 -0.23015219 -0.09500094 0.028342072 0.17626749 0.2567263 -0.23774181 -0.08745989
0.032722898 0.2430283 0.16563836 -0.015494154 -0.09430889 0.22235893 0.07802789 0.2771526
-0.17995568 -0.10353319 0.26529664 0.21729308 0.14533249 0.2585241 0.0070642876 0.14997214
00000000: 5322 87be f7d5 2ebd bc4f 0e3e 5ab4 563e
00000010: 81dd 54bc e7b3 833e eddb 0a3d c916 b63d
00000020: 3a55 9a3c a2c9 9abd 5c72 5bbe 7a99 f1bc
00000030: c445 4abe 069d 0fbe ae6b 8c3e 26d2 483e
00000040: 5056 e8bd b3f3 c9bd 5fcc 8e3e b422 91be
00000050: 4245 67be b56f c0bc 2528 17be 65ba 49be
00000060: f5f2 bcbd 7686 4dbe 2783 20be 5636 55be
00000070: cbe0 cabd 9df0 43be 84fa 443e 52fd 98be
00000080: 7dda 30bd 8c24 693e 962b 3abe 18d6 053e
00000090: 90ad 86be 9c24 6cbd f558 963e 56c2 8d3e
000000a0: 5887 6f3e 5eae 60be 4099 8b3e 80b7 3ebe
000000b0: fa7b f6bc 3c5d 0cbe fd9f 94be 7964 823d
000000c0: 5d22 5b3e d6a4 5cbd a2c8 b1bd 4791 1d3e
000000d0: f0de 443e 99cb 603e d128 8bbe 53bb 3bbe
000000e0: b18b b4bd 259f 7abe 07d0 3cbe df00 753e
000000f0: 24c8 49be 6936 f6bd 93c6 453e 229e b0bc
00000100: 5b39 8f3e 35a1 bd3c 9439 a5bc 85dc bf3d
00000110: 688a 93be 3666 5c3b c39a 243e 2806 15be
00000120: 75f1 ebbc 7faf b8bd b946 a2bd 491c 5abe
00000130: 5315 183e 354d a23d b879 5cbd 3a64 9e3d
00000140: 7dd9 f0bd b41b 973e ceea 7dbe 5e1e 143d
00000150: 6675 72be bcaa 3bbe 48c0 3fbe 2cea 0ebe
00000160: 9296 8d3e 63c5 51be 61f5 29be d931 403e
00000170: ae80 7d3e 8a68 893d 3813 6a3e 306b 13bd
00000180: 43e5 51be 2718 ac3d 6e6f 62be 18cb 60be
00000190: 36fd 63be cb95 b63c e95a 3d3e f8c8 0d3e
000001a0: 714a 553e f908 953e d484 083e fbb4 81be
000001b0: 8670 7fbe baaa 523e ed67 54be 8ba5 4c3e
000001c0: c6b9 2ebe 89f2 473d 13ec 633e 0e02 473e
000001d0: 44a5 c6bd 8d7a 1a3e cef0 8ebe 3a09 43be
000001e0: 3490 24bd 4c83 5cbb da92 3e3e 3c3f edbd
000001f0: e181 c2bd 6860 8bbd c792 5cbe bb56 a73c
00000200: 8733 043d 1009 3cbd 2692 d13c cbf8 953e
00000210: e72e 85be 7612 3b3e 31ed c63c 88f4 2b3e
00000220: 10fb 97bd fb6b 80bd c2a8 68be 7e90 07bd
00000230: 9da1 6fbe f1f0 a4bd f6ca 8fbe 2ea7 d53d
00000240: 8337 16be 9000 6d3d 8228 02be 13cf d5bd
00000250: a5f8 8ebe 04da 2fbe 7d70 89bc ac94 123e
00000260: 4807 963d abf0 eabd d2b2 67bc eb36 33be
00000270: 99eb 7fbe 5033 60be 063e 4cbe 7c89 94be
00000280: e33f 8dbe 638a ebbd 423b 8abd 33f9 06be
00000290: 20f0 813d 437a 44be dd23 70bd 0d87 66be
000002a0: 066f 3b3e 8919 5abd 4b67 893e 88e0 30be
000002b0: 3cf9 87bb fba0 8dbe 3d38 d83d 9685 c43c
000002c0: 0517 f53b 291b 453e d930 9abd e560 97be
000002d0: 3ccc 13be 9323 7fbe 2511 943e 4844 da3d
000002e0: eac0 68be 66ee 95be 04b3 2dbe e491 95be
000002f0: 7ec8 89bd b74f d13c bfc0 21be b54a a7bd
00000300: a16e 6c3e 5bbe 95be c327 193e 5f20 0cbd
00000310: 1918 e23d cc08 203e 03f8 85be aecf ff3c
00000320: 8802 afbd 48a8 863e e9c7 f6bd 7eff febd
00000330: 6c17 543d 44c2 7cbe 2429 71be 9c00 96bd
00000340: f232 d7bc 33ae 18be bc80 82be 62d8 693d
00000350: 86be 4bbe e1ac ce3d 0d94 823d 4cf1 cfbd
00000360: c0b6 74bd e9c7 0fbd 7dab 6bbe 1dfa 0abe
00000370: 8516 50be 8d37 59be dc26 003e 0ecc e93d
00000380: 61a3 93be 0db3 6e3e 345b 88be 5ad6 63be
00000390: f9fd 083e 9d4f d53d f7d3 a8bd e728 953e
000003a0: ffe0 a3bd 04ad 6bbe da8f c2bd a22d e83c
000003b0: 777f 343e a171 833e 9772 73be 2c1e b3bd
000003c0: 7208 063d 69dc 783e 1a9d 293e 31db 7dbc
000003d0: 0525 c1bd 0fb2 633e 16cd 9f3d f2e6 8d3e
000003e0: 4d46 38be 3609 d4bd f6d4 873e 1482 5e3e
000003f0: 0ad2 143e 455d 843e 8a7b e73b 4c92 193e

linear1.bias f4 [256]
-0.23877203 -0.29265624 0.13811478 -0.21038592 -0.0056414106 -0.09145515 0.25837055 -0.14968997
-0.16861211 0.12880439 0.06001524 0.01031832 0.091350615 0.05406215 0.015492707 0.05422351
0.2200152 -0.027881095 0.18900572 0.10623126 0.034656722 -0.20730428 0.088659026 0.21564505
-0.17409849 -0.26828656 0.11583884 0.07949842 0.2873514 -0.052885797 -0.08881781 0.25559118
0.1501776 0.086482845 -0.08902188 -0.019008845 -0.19988039 0.1750001 -0.13288084 -0.2659716
0.08898725 -0.20989785 0.18506704 0.20033045 0.31624278 0.20476846 0.13230234 -0.17706954
0.046857525 0.10108111 0.052636683 0.13531771 -0.2525258 0.23749916 -0.27010748 -0.16739498
-0.04573583 -0.03108443 0.19580154 0.07342315 0.17838395 -0.048516564 -0.28604054 0.13758922
-0.106523275 0.24157119 -0.19101752 -0.23130186 -0.017819792 -0.17170988 0.19127381 -0.20398115
0.28067008 -0.22500893 -0.0023086022 0.108524494 -0.30258095 0.20922038 0.11423001 -0.22261927
-0.1639361 -0.29476684 0.075715505 0.06987193 0.2996964 -0.259022 0.11300639 -0.25726974
-0.28776962 -0.24329078 -0.25379604 -0.16398832 0.16972299 -0.25902912 0.026458582 0.1664041
0.19181897 0.23139289 -0.14310735 0.01008242 -0.09811396 -0.27835447 -0.16237797 0.14481613
-0.22747138 0.1834052 0.24515527 -0.034514137 0.19864962 -0.010675159 0.02254913 -0.100921996
0.10004409 -0.08447343 -0.14150704 -0.10788885 -0.14374341 0.105458446 -0.1015616 -0.2412827
0.18080483 0.07934733 0.06571633 -0.12693837 -0.12009536 0.23870142 0.20977265 0.3016311
-0.034885574 0.085033655 -0.0862593 -0.13026175 0.17601368 -0.013764857 0.23566115 0.11384224
0.20819956 0.08558268 -0.26516068 0.24189675 0.23055737 -0.22811027 -0.2504955 0.14656499
0.2551136 -0.060216893 0.20390095 -0.099131316 0.17609918 -0.25356305 -0.2175742 -0.1630644
-0.19446166 -0.1238581 -0.17194378 0.18168478 -0.15341236 -0.067950785 0.17600513 -0.11598418
-0.09517008 -0.13579854 0.30914593 0.1876709 0.12258274 0.21044877 -0.010333691 -0.25389913
0.05150749 -0.2836894 -0.17318954 0.1308749 -0.28071272 -0.00085057487 0.0725868 0.13655645
0.07901778 0.018252602 0.18294202 0.14976637 -0.2819484 -0.035273515 -0.101189226 -0.20319244
0.0126029765 -0.17922214 0.10647137 0.26482263 -0.089996934 0.18574387 0.057079915 0.28377014
-0.19466871 -0.11957357 -0.059423544 0.27049148 -0.20961086 0.10948916 0.00785778 -0.14037788
-0.027933152 0.09753469 0.21986662 -0.055955485 -0.16000065 -0.22899526 0.085810155 0.043957684
-0.11439878 0.30613843 0.077623375 0.22148444 0.0120051 -0.265759 0.045869775 0.056444295
0.25212482 -0.031314395 0.025013529 -0.20412503 0.26018503 -0.24580555 0.07611793 -0.025642278
-0.07007514 -0.2400418 -0.073550604 -0.20985065 0.28344846 -0.16573524 0.11724478 -0.13428438
-0.04294784 -0.02233928 0.25597343 0.21000873 -0.023911681 0.26971045 0.30807063 -0.11252899
-0.061702147 -0.07429236 -0.26126325 0.24467872 -0.006026948 0.084345005 -0.040364057 0.28787798
-0.23902585 -0.26324978 0.27422825 0.00916468 -0.28509885 -0.091214195 -0.25716084 0.2587887
00000000: a880 74be 0ad7 95be f66d 0d3e 686f 57be
00000010: 95db b8bb d64c bbbd 2549 843e 5448 19be
00000020: a7a8 2cbe 4ce5 033e 8ad2 753d 2c0e 293c
00000030: 0816 bb3d 4670 5d3d 1fd5 7d3c 7919 5e3d
00000040: aa4b 613e e566 e4bc b78a 413e c68f d93d
00000050: 35f4 0d3d 9347 54be dd92 b53d 0ed2 5c3e
00000060: e046 32be db5c 89be ea3c ed3d 11d0 a23d
00000070: b91f 933e c79e 58bd 1de6 b5bd d9dc 823e
00000080: 28c8 193e eb1d b13d 1a51 b6bd 70b8 9bbc
00000090: 72ad 4cbe 3a33 333e ea11 08be 6e2d 88be
000000a0: f33e b63d 76ef 56be 3782 3d3e 6d23 4d3e
000000b0: 93ea a13e d3ae 513e 447a 073e b851 35be
000000c0: aded 3f3d 9d03 cf3d 9099 573d ba90 0a3e
000000d0: 104b 81be fb32 733e 874b 8abe 9769 2bbe
000000e0: 7e55 3bbd c6a4 febc 3380 483e e05e 963d
000000f0: 48aa 363e 4eb9 46bd e873 92be 30e4 0c3e
00000100: e028 dabd 705e 773e 199a 43be 65da 6cbe
00000110: d0fa 91bc b7d4 2fbe 48dd 433e 6fe0 50be
00000120: fdb3 8f3e be68 66be eb4b 17bb 1742 de3d
00000130: e4eb 9abe de3d 563e 6cf1 e93d 4ef6 63be
00000140: ddde 27be aeeb 96be bb10 9b3d 0419 8f3d
00000150: ce71 993e 889e 84be e56f e73d dcb8 83be
00000160: 8a56 93be 3821 79be 8ef1 81be 8eec 27be
00000170: ddcb 2d3e 779f 84be abbf d83c d665 2a3e
00000180: 316c 443e 42f2 6c3e bc8a 12be bc30 253c
00000190: f9ef c8bd 7a84 8ebe 6946 26be ae4a 143e
000001a0: 42ee 68be 93ce 3b3e fc09 7b3e b25e 0dbd
000001b0: ce6a 4b3e dde6 2ebc f4b8 b83c 31b0 cebd
000001c0: eae3 cc3d 6800 adbd 39e7 10be d4f4 dcbd
000001d0: 7931 13be 99fa d73d 87ff cfbd d012 77be
000001e0: e724 393e da80 a23d 4996 863d 22fc 01be
000001f0: 8ef4 f5bd 256e 743e a4ce 563e 646f 9a3e
00000200: 2de4 0ebd 2026 ae3d b7a8 b0bd 5663 05be
00000210: ee3c 343e ff85 61bc 2851 713e 1f26 e93d
00000220: 4432 553e f945 af3d 24c3 87be c8b3 773e
00000230: 3b17 6c3e bd95 69be f240 80be 2215 163e
00000240: 409e 823e fda5 76bd 69cb 503e 5c05 cbbd
00000250: 5853 343e 04d3 81be c5cb 5ebe 5bfa 26be
00000260: f520 47be 51a9 fdbd 0812 30be 930b 3a3e
00000270: 2118 1dbe c829 8bbd b03a 343e 1d89 edbd
00000280: 88e8 c2bd c60e 0bbe 6048 9e3e cd2c 403e
00000290: a90c fb3d e27f 573e a44e 29bc 11ff 81be
000002a0: 85f9 523d bd3f 91be 9958 31be 1204 063e
000002b0: 94b9 8fbe 1df9 5eba 63a8 943d 74d5 0b3e
000002c0: 13d4 a13d 7b86 953c 2755 3b3e 5b5c 193e
000002d0: 8a5b 90be f67a 10bd 4c3c cfbd ae11 50be
000002e0: b77c 4e3c 0286 37be a90d da3d d596 873e
000002f0: 5050 b8bd a433 3e3e a1cc 693d 524a 913e
00000300: 3c57 47be fde2 f4bd 1a66 73bd dc7d 8a3e
00000310: 3ba4 56be da3b e03d ebbd 003c 38bf 0fbe
00000320: 11d4 e4bc 44c0 c73d b724 613e 9431 65bd
00000330: 36d7 23be bc7d 6abe 3cbd af3d f90c 343d
00000340: e849 eabd 2dbe 9c3e 01f9 9e3d d1cc 623e
00000350: 0ab1 443c 9011 88be f2e1 3b3d 2232 673d
00000360: 8116 813e 8643 00bd 2ce9 cc3c 2706 51be
00000370: f936 853e 73b4 7bbe b8e3 9b3d c10f d2bc
00000380: 8e83 8fbd 85cd 75be b3a1 96bd 17e3 56be
00000390: 2820 913e 80b6 29be 081e f03d d881 09be
000003a0: 13ea 2fbd de00 b7bc f30e 833e 870c 573e
000003b0: 6ee2 c3bc 7d17 8a3e 6fbb 9d3e 9975 e6bd
000003c0: 64bb 7cbd 9826 98bd 4cc4 85be 0f8d 7a3e
000003d0: b47d c5bb 13bd ac3d c854 25bd be64 933e
000003e0: 31c3 74be adc8 86be a567 8c3e 7427 163c
000003f0: 7af8 91be 82ce babd 96aa 83be f47f 843e

linear2.weight f4 [3, 256]
0.0058113076 -0.049240448 -0.014204264 -0.06013169 0.017024476 -0.04494616 -0.0012806165 0.030599054
0.008186476 0.042075016 -0.030027598 -0.0055036563 0.024810798 -0.003935538 0.005130768 0.019474436
-0.021489842 0.04290843 -0.029813219 0.053135324 0.019045573 -0.009590614 -0.01654263 -0.07470522
0.028015781 -0.016659515 0.010856358 -0.029786402 -0.0653829 -0.009319436 0.017296229 0.010190768
-0.062207565 0.044221472 -0.048744146 0.002423973 -0.021146892 -0.043839715 -0.011355899 0.015277129
0.04198124 -0.0009890395 0.029916996 0.02019071 -0.05662547 -0.047896355 0.040898766 -0.06040568
0.044270292 -0.048719585 -0.01572951 -0.024048423 -0.04750273 -0.010639878 0.030968715 -0.058478177
0.0032864644 -0.00093808107 -0.0666786 -0.04879321 -0.03145115 -0.030850641 -0.060023613 -0.013975427
-0.03742365 -0.07197809 -0.052968815 -0.03823015 -0.052507464 0.0314823 0.02645822 -0.047038063
0.015880764 -0.045823693 -0.045119405 -0.07271776 0.062843524 0.014930579 0.035687517 -0.00068905036
0.0057849227 -0.004845701 -0.017487664 0.028694637 -0.024909955 0.012028078 0.05001775 -0.017729731
-0.060518123 0.0661824 -0.047075983 -0.06519869 -0.058539182 -0.031225286 -0.022235988 0.014203264
-0.052492164 -0.009052836 -0.020844815 -0.017386893 -0.075671725 -0.037078567 -0.04162757 0.03585836
-0.013855483 -0.024679102 0.05061565 -0.00033539103 -0.046736967 -0.05095328 -0.037324794 -0.025269235
-0.032247365 0.055388056 0.029938534 -0.02448231 -0.02969188 0.015952464 -0.033383247 0.053172525
0.02110177 -0.019061891 -0.013837221 -0.007086604 0.013756278 -0.02174783 -0.04557853 -0.04346414
0.007440127 0.0019275806 -0.004167398 0.041329637 0.043828424 0.012326942 0.04562196 -0.0024546445
-0.0015074824 0.06255881 -0.03285551 0.01996282 0.032091364 -0.06409744 0.017870154 -0.010275252
0.0010107094 -0.069165856 0.04523941 -0.050459582 0.019894054 -0.038204998 0.04322986 -0.04911223
0.0428223 -0.06998411 -0.0063936748 -0.05707255 -0.041887168 -0.054933894 0.021549968 -0.04235436
0.019013498 0.044145573 -0.02000824 -0.07616591 0.031611204 0.01761629 -0.009455427 -0.053170964
-0.011867048 0.046573386 0.005195363 -0.06526934 -0.013141112 0.006286454 0.022352433 0.036112722
-0.06372396 0.042472363 -0.009243951 0.025434218 -0.0710634 -0.015747534 0.04623826 -0.063189685
-0.014311815 -0.04260879 -0.06823989 -0.009575568 -0.0008903615 0.010425976 0.014994461 -0.015167506
0.03831562 -0.036252603 -0.058106396 -0.042161085 0.039705034 -0.023903301 0.02752232 0.039732087
-0.025793148 0.010260986 -0.028107887 0.036585297 -0.03325397 -0.04661414 -0.06504191 -0.043062482
-0.044204395 -0.01626431 0.04103113 -0.024374371 -0.009014927 -0.016074054 0.013045867 -0.0025162245
0.03635349 -0.025813358 -0.06518188 -0.055851094 0.0037238547 -0.048713394 0.0059906393 -0.016359804
-0.05738093 -0.05384084 -0.040781427 -0.018567478 0.051744573 0.046190854 0.01809251 0.04368196
0.008090405 -0.025506178 0.0111381365 0.03156043 0.013656342 -0.030286722 -0.06643065 -0.028376509
-0.019079639 -0.052869968 0.047351073 -0.01877148 0.044451386 0.0045900126 0.019270105 -0.03194608
-0.034043763 0.01729082 0.006952946 0.053314447 0.017149366 0.026528748 -0.01872557 -0.05304613
00000000: c86c be3b 5ab0 49bd 00b9 68bc a64c 76bd
00000010: ea76 8b3c 7719 38bd 5cda a7ba deaa fa3c
00000020: 9220 063c da56 2c3d 70fc f5bc 0458 b4bb
00000030: 0440 cb3c b0f5 80bb 0020 a83b da88 9f3c
00000040: 770b b0bc c0c0 2f3d da3a f4bc 6da4 593d
00000050: 7605 9c3c f321 1dbc 6984 87bc 0dff 98bd
00000060: 5a81 e53c 8979 88bc dede 313c 9d02 f4bc
00000070: 78e7 85bd 8cb0 18bc d2b0 8d3c 2ef7 263c
00000080: 5ccd 7ebd 9321 353d f1a7 47bd 85db 1e3b
00000090: 3f3c adbc 4691 33bd 180e 3abc ec4c 7a3c
000000a0: 85f4 2b3d a9a2 81ba 7d14 f53c fd66 a53c
000000b0: 1cf0 67bd f82e 44bd 7785 273d f26b 77bd
000000c0: c454 353d 308e 47bd 2cdb 80bc 3301 c5bc
000000d0: 3992 42bd e252 2ebc 1ab2 fd3c d086 6fbd
000000e0: b961 573b 8ee9 75ba ca8e 88bd 64db 47bd
000000f0: ecd2 00bd 7cba fcbc 52db 75bd 30f9 64bc
00000100: 8b49 19bd 4069 93bd d4f5 58bd 3897 1cbd
00000110: 1112 57bd 96f3 003d e9be d83c fcaa 40bd
00000120: 6018 823c a0b1 3bbd 20cf 38bd 0ded 94bd
00000130: 1bb4 803d 639f 743c 132d 123d 63a1 34ba
00000140: 738f bd3b b0c8 9ebb 4a42 8fbc 0411 eb3c
00000150: f60f ccbc 6a11 453c 6adf 4c3d f13d 91bc
00000160: dae1 77bd a38a 873d bfd2 40bd e486 85bd
00000170: c8c6 6fbd 2ccc ffbc 3f28 b6bc cfb4 683c
00000180: 0602 57bd 5952 14bc bfc2 aabc f56e 8ebc
00000190: c7f9 9abd b2df 17bd ac81 2abd 37e0 123d
000001a0: 1c02 63bc d42b cabc 5b52 4f3d 6cd7 afb9
000001b0: 436f 3fbd 63b4 50bd e2e1 18bd 6d01 cfbc
000001c0: d015 04bd 96de 623d a841 f53c 208f c8bc
000001d0: 633c f3bc beae 823c dfbc 08bd 6fcb 593d
000001e0: 9fdd ac3c af27 9cbc 83b5 62bc be36 e8bb
000001f0: 0362 613c 8128 b2bc 8db0 3abd 7407 32bd
00000200: 4fcc f33b dfa6 fc3a ab8e 88bb 4449 293d
00000210: 6f85 333d f1f6 493c 18de 3a3d 1ade 20bb
00000220: b796 c5ba d51e 803d 8093 06bd 1189 a33c
00000230: 3c72 033d 8545 83bd 6e64 923c 8859 28bc
00000240: c879 843a d4a6 8dbd f64c 393d b5ae 4ebd
00000250: dbf8 a23c d87c 1cbd cb11 313d e829 49bd
00000260: 7066 2f3d d453 8fbd 0882 d1bb e8c4 69bd
00000270: e191 2bbd 5d02 61bd 8f89 b03c c47b 2dbd
00000280: 32c2 9b3c fdd1 343d 52e8 a3bc dffc 9bbd
00000290: c07a 013d 0a50 903c efea 1abc ccc9 59bd
000002a0: 026e 42bc bcc3 3e3d dd3d aa3b efab 85bd
000002b0: d24d 57bc 99fe cd3b 731c b73c efea 133d
000002c0: b581 82bd 80f7 2d3d f173 17bc 6c5b d03c
000002d0: b089 91bd f900 81bc 5464 3d3d 9869 81bd
000002e0: 1a7c 6abc 8e86 2ebd 5bc1 8bbd d8e2 1cbc
000002f0: 2667 69ba b6d1 2a3c 54ab 753c 2281 78bc
00000300: d7f0 1c3d 9c7d 14bd f900 6ebd 1ab1 2cbd
00000310: bfa1 223d dbd0 c3bc 7d76 e13c 1dbe 223d
00000320: 274c d3bc b21d 283c 8342 e6bc 77da 153d
00000330: 5135 08bd 78ee 3ebd b134 85bd 4962 30bd
00000340: ab0f 35bd bb3c 85bc 4210 283d c3ac c7bc
00000350: 58b3 13bc bcad 83bc 55be 553c 3ee7 24bb
00000360: 66e7 143d 8976 d3bc 147e 85bd 1ec4 64bd
00000370: ea0b 743b b287 47bd 204d c43b ff04 86bc
00000380: 4408 6bbd 3688 5cbd 6d0a 27bd d31a 98bc
00000390: 1ef2 533d 9f32 3d3d be36 943c dbeb 323d
000003a0: 9e8d 043c 55f2 d0bc bb7c 363c 8245 013d
000003b0: dabe 5f3c dc1b f8bc cb0c 88bd da75 e8bc
000003c0: e74c 9cbc 2e8e 58bd 33f3 413d a6c6 99bc
000003d0: a812 363d d167 963b 57dc 9d3c e5d9 02bd
000003e0: 7971 0bbd 7aa5 8d3c 8ad5 e33b 4060 5a3d
000003f0: d47c 8c3c d152 d93c 5e66 99bc e646 59bd

linear2.bias f4 [3]
-0.078022525 -0.037465412 0.012069225
00000000: 46ca 9fbd 5575 19bd 00be 453c
