model/model.pth (torch, 17216 bytes, 4 tensors)

linear1.weight f4 [256, 11]
000000 a6 13 cf bc 10 f2 03 be f1 70 d5 bd 7a 4e 3d 3e
       -0.025277924 -0.12885308 -0.104219325 0.18486968
000010 a1 75 b6 bd 37 00 96 3e 02 96 e8 3c 1f 36 35 3d
       -0.08909155 0.2929704 0.028391842 0.044241067
000020 2d 44 8a be a3 63 fb bd 3f 7d 8e be 89 bc 6c 3e
       -0.2700514 -0.122748636 -0.2782993 0.23118795
000030 77 66 38 bd 4e 3e 56 3e 88 8e 20 3d 2a d5 7c be
       -0.045019593 0.20922205 0.03919843 -0.2469069
000040 27 87 9c 3e 1b 33 18 bd 23 9e 75 3e 96 5a 7d be
       0.30571863 -0.037158113 0.23986106 -0.24741587
000050 e0 96 1f 3e 31 dd 95 3e 53 6d 50 3e 87 0c 1b 3e
       0.15584898 0.29270318 0.20354204 0.15141498
000060 b9 a2 65 be 7e 6b a3 bd 65 e9 89 be fe 49 93 3e
       -0.22425355 -0.07979487 -0.26935878 0.2876739
000070 7a 0c 93 be 93 c0 70 bd ee 7d 07 be c6 d3 2b be
       -0.28720456 -0.058777403 -0.13231632 -0.16780004
000080 70 90 ff 3d 58 a0 ec bb ab bd 17 3e 16 ea 8c 3e
       0.12478721 -0.007221263 0.14818446 0.27522343
000090 e3 8a 76 be 6b a1 02 3e 1b 3b 9a be 22 fa 13 3e
       -0.24076419 0.12756889 -0.3012322 0.14450887
0000a0 ed ff a2 3d 85 6d 8f 3e 9e 53 70 bd a6 46 5a 3d
       0.0795897 0.28013244 -0.058673494 0.05329003
0000b0 48 8e 47 be 2d d8 6f 3e cc f7 e2 3d 31 d1 2e 3e
       -0.1948787 0.23422308 0.1108242 0.17071988
0000c0 60 76 3e 3e 55 39 84 be 87 29 69 3e cb b5 48 3e
       0.18599844 -0.2582499 0.22769748 0.19600599
0000d0 29 ed 59 3e d0 87 f4 bc 19 ad 79 3e b6 f0 66 3e
       0.21281876 -0.029849917 0.24382438 0.22552761
0000e0 92 f5 50 be 96 f0 8a 3e c9 ca 8a 3b 55 2f d1 3d
       -0.20406178 0.27136678 0.0042355997 0.10214106
0000f0 a8 fd 8f 3e 3e 53 5e 3c 2f 40 13 3e f3 bb a2 3d
       0.28123212 0.013569651 0.14379953 0.07946005
000100 04 51 10 3e b5 42 99 3e 1f f5 d7 3c 21 78 a0 3d
       0.14093405 0.29933706 0.026362 0.07835413
000110 8b 7e 3a be 81 63 f0 3d 0f 99 88 bd 37 46 bf 3d
       -0.18212335 0.11737729 -0.066698186 0.09339564
000120 6a 31 61 be ec a2 87 3e 4f fe 58 be 33 3f 71 be
       -0.21991506 0.26491487 -0.21190761 -0.23559265
000130 51 44 62 be f5 5a 7e 3e 58 9f 95 be a1 da 97 bd
       -0.22096373 0.24839385 -0.29223132 -0.07414747
000140 a2 26 4e be 58 b9 44 3e 18 85 08 3e 35 06 d5 bc
       -0.20131925 0.19211328 0.13332021 -0.026003936
000150 c0 cf 14 3e f9 1f b2 3d 2b 36 95 be 03 5b a5 3d
       0.14532375 0.086975046 -0.2914289 0.08074
000160 19 94 93 be f4 d6 83 bc f6 40 d3 3c 42 ca 8b be
       -0.28823927 -0.016093709 0.025787812 -0.27302748
000170 58 70 3c be f4 8b 0c 3e f0 3e 96 be 37 8f 94 3e
       -0.1840223 0.13725263 -0.29344893 0.29015514
000180 8d 8c 39 bd 00 33 81 be bf e7 3d be 67 a6 68 3d
       -0.045300055 -0.25234222 -0.18545435 0.05679932
000190 d4 b4 59 be 1f c4 dd bc 27 f7 83 3e d2 c9 f5 bd
       -0.21260387 -0.027071057 0.257745 -0.12001385
0001a0 94 51 96 3d ca a4 29 bc d4 3e 36 3e b0 1b c7 3b
       0.073397785 -0.01035423 0.17797405 0.0060762987
0001b0 f3 8e 45 3e 23 bc ec bd 2c 9e 5c 3e e3 78 a1 bd
       0.19292812 -0.11559322 0.21544713 -0.078843854
0001c0 c9 4a 81 bd 38 87 ea bd 00 5c 31 be c4 c3 8f 3e
       -0.06313092 -0.11451572 -0.17320251 0.28079045
0001d0 ba a2 dd bd 9c f7 9e bd 83 7a 65 bd 02 8e f0 bb
       -0.10822053 -0.077620715 -0.05602504 -0.0073411474
0001e0 61 1a 21 be cf 93 74 3e 94 8c f6 bb aa d5 76 be
       -0.15732719 0.2388451 -0.0075240824 -0.24104944
0001f0 da 34 0c 3e 2b ba 24 3e b7 06 86 be 4f c7 7c bd
       0.13692036 0.16086642 -0.26176998 -0.061713513
000200 c5 fe 1f 3d 4c 3e 1b be 80 f3 83 3e fa 46 91 3e
       0.039061327 -0.15160483 0.25771713 0.28374463
000210 68 32 63 3d 77 4f 0e bc 64 07 15 be 1c ba 38 3d
       0.055467993 -0.008685938 -0.145536 0.045099363
000220 4f 81 5e be 19 4d c7 3b 19 90 c3 bd f1 63 05 3e
       -0.21729015 0.006082189 -0.09548969 0.13026406
000230 c6 e1 04 3e da 83 5d 3e f2 89 4e be f3 3b ad 3d
       0.1297675 0.21632329 -0.2016981 0.084587
000240 11 62 8c 3e 46 5a be 3a 2c 92 50 3d 1d 2f 67 be
       0.2741857 0.0014522753 0.05092065 -0.22576566
000250 6b 10 60 bd c2 c6 65 3e f6 e5 5c bc e9 70 85 3d
       -0.054703157 0.22439101 -0.013482561 0.065156765
000260 c7 14 31 3d 1f 87 c3 3c 40 f3 29 3e 06 39 6e be
       0.043232705 0.023868142 0.16596699 -0.2326394
000270 af a6 ae bd be 60 89 be 3f 6c 94 3e 91 45 89 3d
       -0.08527886 -0.2683162 0.28988835 0.06702722
000280 a9 d0 37 bb 6c 69 4b 3e 40 fd 53 be 27 ca 95 be
       -0.0028047955 0.19864434 -0.20702076 -0.29255792
000290 95 63 a8 bd a9 60 8d 3e c5 4e 60 3e 5f 8a 50 3e
       -0.08222119 0.27612808 0.21905048 0.20365284
0002a0 ff 5b 7b be dc 8f 8c 3e 3a 88 94 3e 50 2e ba bc
       -0.24546812 0.27453506 0.29010183 -0.022727162
0002b0 8f 3d f4 bd 5d 73 2e be 9b 0e 31 be a9 2b 91 3c
       -0.11925804 -0.17036195 -0.17290728 0.017721014
0002c0 9c 7c 7d 3e 63 83 fa bc 9e 9c ab 3c b5 68 92 3e
       0.24754566 -0.030580228 0.020948704 0.2859551
0002d0 ed 50 06 3e c9 83 41 be ef df 1f 3d 52 65 79 be
       0.13116808 -0.18897928 0.03903192 -0.24355057
0002e0 86 a9 72 be 71 9a 48 be b4 f0 36 be fc 90 98 be
       -0.2369748 -0.19590165 -0.17865258 -0.29798114
0002f0 d0 cb 83 3e 5c 2d 72 3e 20 5d fd 3d 99 98 29 be
       0.25741434 0.23650116 0.12371278 -0.16562118
000300 30 ac d2 3d 79 84 31 3e 28 c4 f9 bd dd bf 2f 3e
       0.102867484 0.1733569 -0.12195617 0.17163034
000310 03 14 97 bc dc 64 3a bd bc 62 98 be 12 1c 02 bd
       -0.01844216 -0.045506343 -0.29762828 -0.03176505
000320 dc 7f 8c be e7 a4 4d 3e 72 62 c0 bd a2 e5 0d 3e
       -0.274413 0.20082437 -0.09393777 0.13857129
000330 66 a4 48 be ad 07 c1 3d 35 44 9c be 4f 66 86 be
       -0.19593963 0.09425292 -0.30520788 -0.2624993
000340 93 dc 30 be d4 d2 54 3e 06 9c 00 be cb 7b 11 be
       -0.17271642 0.2078355 -0.12559518 -0.1420738
000350 7b 7c 16 3e 03 c9 8a be 22 76 63 bc 70 42 b1 bd
       0.14695923 -0.27106485 -0.0138831455 -0.0865525
000360 41 15 98 bc 77 b8 26 3e a7 61 89 3d 34 7f 97 3b
       -0.018564822 0.16281305 0.06708079 0.004623318
000370 76 cc 96 be 3f fe bd bd a3 67 44 be 03 78 d9 3d
       -0.29452866 -0.09277009 -0.1918016 0.106185935
000380 ce e9 41 bc 17 b6 e1 3d 60 77 8e be 3b f2 91 bc
       -0.011835529 0.11021059 -0.2782545 -0.0178157
000390 a9 88 5e bc 5d ad 02 3e 94 39 b3 bd 33 72 7e be
       -0.013582387 0.12761445 -0.087512165 -0.24848251
0003a0 e4 14 58 3d 5b 87 5e be 32 8c 42 3e fa 12 18 bd
       0.052754298 -0.21731322 0.18998793 -0.037127472
0003b0 57 8e 13 3e 41 ea 6e be 43 64 14 3e b7 12 2a 3e
       0.14409767 -0.23331548 0.14491372 0.16608702
0003c0 94 63 98 be 3c c3 56 3e 9b d6 92 be b6 20 83 bd
       -0.29763472 0.20972914 -0.28679356 -0.064027235
0003d0 3a bb 2e 3e 4c 85 2e 3e 02 fa ed bd 42 75 55 3c
       0.17063609 0.17043036 -0.11619951 0.013028445
0003e0 72 82 a4 bd e8 a2 89 3e 4a 79 f6 bd 80 43 b5 bd
       -0.08032693 0.268821 -0.12034853 -0.08850765
0003f0 ee fa 9d 3d 4d c0 44 bd c4 59 df 3d 9e bb 2d be
       0.07713877 -0.048034955 0.10905793 -0.16966102

linear1.bias f4 [256]
000000 a2 91 90 be a0 a9 53 3e 0e 74 6f be 4c ef 58 bd
       -0.2823611 0.20670176 -0.23384115 -0.052962586
000010 31 56 93 be dd ba 8a be 9e 0c 27 be c3 40 73 be
       -0.28776696 -0.2709569 -0.16313407 -0.23755173
000020 99 a3 8f be f8 bc fc bd 20 a1 88 3d 41 2c 39 be
       -0.28054503 -0.123407304 0.06671357 -0.18083288
000030 cb 59 e8 bd 19 73 1c 3e c9 b9 69 3e 4a 2d 1c 3e
       -0.11345252 0.15278281 0.22824778 0.15251651
000040 9c b8 8a 3e 64 2b 12 3e 50 be 3f 3e e7 72 99 be
       0.2709397 0.14274365 0.18724942 -0.29970476
000050 5a 0d 7f 3d 6b 6e da bd e9 4c bd 3d c2 2f 11 be
       0.062268592 -0.10665592 0.09243185 -0.14178374
000060 7c 2c 47 bc f8 be 24 b9 a0 b6 d1 bc f1 4b 8a bd
       -0.012156602 -0.000157114 -0.025599778 -0.06752766
000070 f2 4a 01 be 26 8d 3a 3e 80 9d 1a be f0 42 70 bd
       -0.12626246 0.18217906 -0.15099144 -0.058657587
000080 a6 c3 cd bc ec 4f 93 3e 2f fb 5d 3e 12 e0 d8 3d
       -0.025117707 0.28771913 0.2167785 0.10589613
000090 bf bc 59 3e 04 89 91 3e 38 f0 01 3e 3b 1f 88 3e
       0.21263407 0.28424847 0.12689292 0.26586327
0000a0 31 e6 83 3e 22 be 89 be d1 8b 93 3e 6b 61 97 be
       0.2576156 -0.26902872 0.2881761 -0.29566512
0000b0 f3 71 f5 3d 8e 3b 72 3d e1 65 a3 3c 1e e0 82 bd
       0.11984625 0.059138827 0.01994604 -0.06390403
0000c0 70 ed 10 3e 10 2f 25 3e 3c c2 1a bd d6 d6 50 3e
       0.14153075 0.16131234 -0.037782893 0.20394453
0000d0 22 b0 81 be 51 48 6e be ac 32 c9 bd 4e 66 8a 3e
       -0.2532969 -0.23269774 -0.09824118 0.27031177
0000e0 c3 8b 35 3d 08 40 1e be 3b b2 8d be 6f b5 9d be
       0.04432274 -0.15454113 -0.27675042 -0.30802485
0000f0 83 45 14 3e e8 88 64 3e 0a bb 21 3e 29 d1 60 3e
       0.14479642 0.2231785 0.15794006 0.21954788
000100 9b a3 3c be 8c 90 47 be a3 1e 09 bd 53 d5 3f be
       -0.18421786 -0.19488734 -0.033476483 -0.1873372
000110 01 3d 89 3e a1 4a 4e be 10 c8 94 be 9d 4c 96 be
       0.26804355 -0.20145656 -0.29058886 -0.29355326
000120 56 cc e9 3c 17 c3 51 3e 0a 4f f2 bd dc 73 98 bd
       0.028539818 0.20484577 -0.11831482 -0.074439734
000130 5e 11 65 bd 91 87 01 3e 10 ab 87 be 5c 0f a2 3b
       -0.055924766 0.1264937 -0.26497698 0.0049456786
000140 ba 51 45 3e 2c 51 96 be 22 89 2a be c0 43 19 bb
       0.19269457 -0.29358804 -0.16653875 -0.002338633
000150 98 83 86 be e0 41 8e be 8d 02 07 3e c9 7e 67 3e
       -0.26272273 -0.27784634 0.13184567 0.22606958
000160 42 d8 42 be 98 a3 b3 3d 4f 33 24 bc b2 b6 52 be
       -0.19027808 0.087714374 -0.010021999 -0.20577505
000170 d4 8b 54 be c1 86 83 3e b1 75 82 3d 61 44 88 be
       -0.20756465 0.25688747 0.06370104 -0.2661467
000180 00 a4 78 3e 19 ee 1a be 3f 8f 89 3e 4f 92 1f 3e
       0.24281311 -0.1512989 0.268671 0.15583156
000190 5b e4 36 3e 21 97 5b bc e2 38 90 bd 62 b0 22 3e
       0.17860548 -0.013402731 -0.070420995 0.15887597
0001a0 8f 0c c3 bc b7 e7 50 3e d8 e0 81 3d f9 c2 9a 3b
       -0.0238097 0.20400892 0.06341714 0.0047229496
0001b0 c8 e4 bb 3d e9 44 07 be 41 98 05 be 41 93 13 3e
       0.09174496 -0.13209881 -0.13046362 0.14411642
0001c0 c2 48 8f 3c fb 11 5a be 29 d8 93 bd e7 29 3b 3e
       0.017490748 -0.21295922 -0.07218964 0.18277703
0001d0 bc b0 3d 3e 01 fe 8e 3e 19 20 1c 3e cc 25 86 3e
       0.1852445 0.27928165 0.1524662 0.26200712
0001e0 cc fb 97 be f8 84 e8 3d 0e a5 95 3e d3 a4 05 be
       -0.29684293 0.11353487 0.2922749 -0.13051157
0001f0 59 27 da bd a3 98 6c 3e 2c 2b dc 3d 6a 78 39 3e
       -0.10652036 0.23105101 0.10750422 0.1811234
000200 3b 06 26 bc 04 62 22 be e2 ea 6a 3e 21 72 46 3e
       -0.010133321 -0.15857702 0.22941163 0.19379474
000210 2b 78 0c 3e 6e ad 61 be 22 94 4c be ef 27 6e 3e
       0.13717715 -0.22038814 -0.19978383 0.23257421
000220 8b bf 4d 3d 7d 14 6a bd ec 1a 55 bd d3 63 41 bd
       0.050231498 -0.057148445 -0.052027628 -0.04721434
000230 9d e1 97 be 3e 70 f6 3d 51 d4 5a be d5 02 a6 3d
       -0.29664317 0.12033127 -0.21370055 0.08106009
000240 07 d7 a2 bd 1c 16 5c be 57 16 99 be 78 98 ae 3d
       -0.079511695 -0.21492809 -0.29899856 0.08525175
000250 eb 7d 88 be 9a b9 df 3c 3a dd 99 bb 04 f1 c5 bd
       -0.26658568 0.027310181 -0.0046955617 -0.09665111
000260 cf 2b 57 3c 10 be 87 3e 6f 89 7b 3e 9f 52 56 be
       0.013133003 0.26512194 0.24564146 -0.20929955
000270 c5 cd 83 bd 54 10 4a 3e 3e 47 24 be c6 09 44 be
       -0.06435732 0.19732791 -0.16042802 -0.19144353
000280 12 0d fd 3c 65 f6 8e be a1 48 39 3e 02 60 1f bd
       0.030890021 -0.2792236 0.18094112 -0.03890992
000290 be 4e 63 3b 8f fd 96 be 04 27 bc 3c 65 60 d2 3d
       0.0034684385 -0.29490325 0.022967823 0.10272292
0002a0 45 a5 86 3b 22 bc 82 3d 2a 48 84 bd 48 9f 49 bc
       0.004109057 0.0638354 -0.06459077 -0.012306042
0002b0 2f d7 3f 3e b9 da 94 3d 59 e8 72 be 79 e4 7d 3e
       0.1873443 0.072682805 -0.23721446 0.24794187
0002c0 49 b0 9b 3b ed 78 71 3c 7a a4 31 3d 3f 46 36 3e
       0.0047512394 0.014738304 0.043369748 0.17800234
0002d0 01 2e 79 3d 80 f8 a9 bd 58 7c ff 3d 21 63 e8 bc
       0.06083489 -0.08299351 0.124748886 -0.02836758
0002e0 3a 40 91 3d 62 25 97 bd ad 56 2c bd a0 d0 74 be
       0.07092328 -0.07380177 -0.042074848 -0.23907709
0002f0 33 7f 9a be 8d 32 52 be eb 40 68 be af 17 c4 3d
       -0.3017517 -0.20527096 -0.22681014 0.0957483
000300 20 e0 83 be 11 96 50 3d ca 5e 95 3e 6c 6a 92 be
       -0.2575693 0.050924364 0.2917388 -0.28596818
000310 d7 a4 de bd 85 8d dc bc 14 96 a4 3b 54 68 09 3e
       -0.108712845 -0.02692295 0.0050227735 0.13418704
000320 15 e5 27 3e c7 94 1c be a2 52 55 be 24 fc 86 3e
       0.16395982 -0.15291129 -0.20832303 0.26364243
000330 b7 b3 3b 3e fe 7d 2e 3d 73 9d 0a 3e 94 3a a3 bd
       0.18330275 0.042600624 0.13536625 -0.07970157
000340 5f 23 30 be 49 9e a1 bd 05 de f8 3d df 8a ab 3c
       -0.17200993 -0.078915186 0.12151722 0.020940242
000350 4c 3f 87 be 68 c9 96 3d e2 47 6e 3e 24 56 e8 3c
       -0.2641548 0.07362634 0.23269609 0.028361388
000360 1b 71 9d 3e 6f 17 8f be 5a 50 2e 3e a9 cd a0 bd
       0.30750355 -0.27947566 0.17022839 -0.078517266
000370 70 e2 a3 bd a5 c7 21 3e 88 89 66 be 90 3d e2 3d
       -0.08002174 0.15798815 -0.22513402 0.11046898
000380 83 36 89 3e 5a 23 56 be 60 79 2a 3e 1a db 8d 3e
       0.26799402 -0.20911923 0.16647863 0.27706224
000390 75 8f 97 be 24 6e 8b be 86 99 49 3e e5 54 c5 3d
       -0.29601637 -0.27232468 0.19687471 0.09635333
0003a0 ee 10 dc bd 99 9b 47 be 5c 10 3e 3e ff 48 70 3d
       -0.107454166 -0.1949295 0.18560928 0.058663364
0003b0 e0 80 41 3e 2c 9f ec 3d 8f 41 c6 3d 50 43 63 3e
       0.18896818 0.11553797 0.09680473 0.22193646
0003c0 9c 95 62 3e 98 5a 82 3d 01 53 89 3e 0c 6f 1f bd
       0.22127384 0.06364936 0.2682114 -0.038924262
0003d0 83 fc 18 bd c0 e3 83 bb c2 28 75 3e a9 fc 21 3e
       -0.03735019 -0.0040249527 0.23941329 0.15819038
0003e0 bf cb 88 be 21 df 12 be 46 6f 51 be 82 94 6b 3e
       -0.26717946 -0.1434293 -0.20452604 0.2300587
0003f0 ce 99 2e 3d cb e2 ad bd 73 12 80 be 67 69 bd bc
       0.04262715 -0.08490523 -0.25014076 -0.023121549

linear2.weight f4 [3, 256]
000000 a4 0b 2b 3d c9 87 5b 3c 80 ab 82 bb de 5b 04 3d
       0.04175915 0.013399073 -0.0039877295 0.032314174
000010 9c b6 c5 3c 96 cf 53 3d e0 99 07 bc 5e a1 6f bb
       0.024134926 0.05171164 -0.008276433 -0.0036564688
000020 92 ef 04 3d e4 03 cc bb a4 cc ab bc 4b b8 44 bd
       0.032455035 -0.0062260497 -0.020971604 -0.048027318
000030 df 4e 5e bd 8f 7d 39 bd 1a ea f5 bc c1 a4 c9 3b
       -0.054274436 -0.045285758 -0.030018855 0.0061536734
000040 53 da 03 bd 8d a7 7c bd 00 b5 71 3a a1 fb e6 bc
       -0.032190632 -0.061683226 0.00092203915 -0.028196158
000050 32 01 0d bc 0a ca 05 bd 23 ff 39 3c 60 d3 59 3b
       -0.008606242 -0.032663383 0.011352333 0.0033237562
000060 37 7a bd bc 0a eb e5 3c 29 65 20 bd 2e 83 22 bd
       -0.023129566 0.028066177 -0.039158974 -0.039675884
000070 e5 f4 cd 39 f5 70 9c 3b ab d8 db bc 40 b2 d4 bc
       0.00039283108 0.0047742077 -0.026836714 -0.025963902
000080 73 33 f6 bc 21 f6 49 3d c7 45 38 3d 73 d1 6d 3d
       -0.03005383 0.049306992 0.04498842 0.058061074
000090 d9 df 1b 3d 4e ad 12 bd 7b 5e 07 bd 88 d7 ee bc
       0.038055275 -0.035809807 -0.033049088 -0.029155508
0000a0 9d 05 30 3d 38 95 dd 3c 25 08 7d 3d c2 ad 2a bd
       0.042974103 0.027048692 0.061775345 -0.041669615
0000b0 d2 aa f4 bc 11 ad 48 bd 02 ac 12 bd 64 02 a9 bc
       -0.02986661 -0.048993174 -0.03580857 -0.020631023
0000c0 41 f1 74 3d f8 51 48 bd d1 d0 92 bc 79 a4 8a 3c
       0.05980039 -0.048906296 -0.017921837 0.01692413
0000d0 75 89 13 3d f6 db fd 3c e0 4e 3c bd 6c b7 0c 3d
       0.03601976 0.030988675 -0.04597366 0.034354612
0000e0 77 7b 3a 3d bc b1 3d 3d 91 98 bf 3b 90 5f 56 bd
       0.0455279 0.04631208 0.0058470448 -0.05233723
0000f0 75 f6 11 3d 92 8a 64 bd c9 4e ed 3c 9c 85 38 bd
       0.03563543 -0.055796213 0.028968232 -0.045049295
000100 83 b7 1f bd c1 19 5b bd 6d 38 00 3d 8d 49 12 3d
       -0.03899337 -0.053491358 0.03130381 0.035714675
000110 cb 88 e0 3a d5 14 8d 3b 00 75 26 3d 8e 9b 4c 3d
       0.0017130611 0.004305462 0.040638924 0.049953036
000120 6a e1 94 bc 26 cc 50 bd 1d 27 8a 3c f7 05 61 bd
       -0.018173892 -0.05097594 0.016864354 -0.05493733
000130 23 ba 41 bd 0b 30 77 bd 81 c3 61 bd 7e 5b 2d bd
       -0.047296654 -0.06034855 -0.055118088 -0.042323582
000140 a3 c2 db bc 00 a5 22 3a 7b 2f 46 3a 81 03 90 3c
       -0.026826208 0.00062043965 0.0007560176 0.017579796
000150 4b 3c 19 bd 7e 8e 71 3c 22 c9 80 3b ae f5 3f bd
       -0.037411015 0.014743445 0.003930227 -0.046865158
000160 87 c6 a4 3b ad 68 9b 3c 74 ab 4d 3d 54 9b 20 39
       0.005028549 0.018970812 0.05021234 0.00015316653
000170 dd 5e 53 3c b3 46 b1 3c dc 1e a9 bc 38 25 25 3d
       0.012901035 0.021640157 -0.020644598 0.040318698
000180 e7 84 e0 3c 91 35 1c 3d 8b 3d df bc fb b4 04 3d
       0.027407123 0.038137022 -0.027251026 0.03239916
000190 4c 4a a3 3a d7 4f 3f 3d 1c 37 07 bd 23 85 48 bd
       0.0012458055 0.046707 -0.03301154 -0.048955094
0001a0 27 75 3b bc 99 e7 70 bd 72 c0 15 3d 6a 49 d0 ba
       -0.0114415055 -0.05881462 0.036560483 -0.001589102
0001b0 d5 92 73 3c 53 fb 81 bc bc 2b 14 3d 71 4a 9b 3b
       0.01486655 -0.015866911 0.03617452 0.0047390987
0001c0 3e c5 41 3d 42 1d 88 bc 49 30 9a bb b6 0a f1 3c
       0.047307245 -0.016615514 -0.004705463 0.029424053
0001d0 50 93 2e bd 11 fa 03 bd b3 37 1e 3d f1 8f 5b 3d
       -0.042620957 -0.032220904 0.038627338 0.05360407
0001e0 0a 70 f1 bc 88 7b 31 3d 13 ed ea bb 5e 82 2c 3d
       -0.02947237 0.0433307 -0.0071693747 0.042116515
0001f0 36 df 14 3d 39 c2 1d bd f6 f2 3e bd 63 8c e2 3a
       0.036345683 -0.038515303 -0.046618424 0.001728427
000200 f5 50 ea 3c fc 7c 49 bd 96 47 90 3c 9f ec 1c 3d
       0.028603056 -0.04919146 0.01761226 0.038311597
000210 e7 a3 7a 3d 34 50 3b 3d 38 40 2d bc c7 ea 83 bc
       0.061191466 0.045730785 -0.010574393 -0.016103161
000220 7a 4d b7 3c dc de 3a bd 6f 4b 2f 3c 92 44 54 bd
       0.02237581 -0.04562269 0.010699137 -0.051823206
000230 d9 f0 9a 3b 19 e3 27 bd 4a 7c 6b 3c e5 ed 0e bd
       0.0047284183 -0.04098806 0.014372895 -0.034894843
000240 b3 36 31 3d 5f b9 49 bd 90 19 b3 3c 39 3c 82 3b
       0.043265056 -0.04924905 0.021862775 0.0039744643
000250 97 b0 03 3d 52 c8 2d 3c 9d f2 65 3d ce 36 66 3c
       0.03215083 0.010606842 0.056139577 0.014051152
000260 a9 7e 84 3d 50 84 34 bd ba 9c 76 3d 13 3f 07 3d
       0.06469471 -0.044071496 0.06020806 0.033019137
000270 29 27 ce 3a 6b 52 2b 3d 79 f0 b5 3c 2e f4 29 3d
       0.0015728223 0.041826647 0.022209393 0.041492634
000280 cb ff 96 bb 93 c1 25 bd b0 4e 24 3c f5 99 40 3d
       -0.0046081296 -0.04046781 0.010028526 0.047021825
000290 50 84 b0 bc 00 6f 81 ba b4 e8 72 3d 8f 35 12 3d
       -0.021547467 -0.0009875 0.059303954 0.03569561
0002a0 e6 5c 95 bb f3 c4 da bc d0 22 fb 3c f7 1a 4b 3d
       -0.0045581935 -0.02670524 0.030656248 0.049586263
0002b0 0f b6 62 bb 53 62 c9 bc 05 68 ee 3c 9a 22 58 3d
       -0.0034593379 -0.024583017 0.029102335 0.052767374
0002c0 82 e1 84 3c 58 59 72 bd da ad 1b 3d 92 53 a4 bc
       0.016220812 -0.059167236 0.038007595 -0.02005938
0002d0 30 b0 80 3d e5 44 61 3c b6 c6 62 3d bd 7b 36 bd
       0.06283605 0.013749336 0.055365287 -0.0445516
0002e0 e8 19 ae bc ac 05 53 3d 75 13 7b bd 2c 08 3c 3d
       -0.021252587 0.05151908 -0.061297853 0.04590623
0002f0 c0 b8 25 3d 60 8b b5 bc 44 e3 da 3c 96 5c 02 3d
       0.040459394 -0.022161186 0.026719697 0.031826578
000300 a6 31 1b 3d 66 c6 a8 3c 57 e7 1d 3d 80 50 2c bc
       0.037889145 0.020602416 0.0385507 -0.01051724
000310 4c c3 c4 bc 5e 91 14 bd 17 02 e7 3c a2 a9 16 bd
       -0.024018906 -0.036271445 0.028199239 -0.03678287
000320 58 47 f8 3c 0d d0 58 bd 1b ea 73 3d 19 81 9f bb
       0.030307457 -0.052932788 0.059549432 -0.0048676846
000330 38 49 be bc 26 37 39 bd bd ac c0 bc 21 af 0b 3d
       -0.023228273 -0.04521861 -0.023519868 0.034102563
000340 c2 dd 66 3d d8 d4 18 3d 7e 60 59 bd c5 e2 78 3b
       0.05636383 0.03731236 -0.053070538 0.0037976962
000350 be 8e 2d bd 02 dc d3 bc 8d f3 b8 3b dd ce cc 3b
       -0.042372458 -0.025861744 0.005644268 0.006250246
000360 93 2c 11 bd 18 b2 f4 bc a8 01 64 bd 84 ba 1f 3d
       -0.0354429 -0.029870078 -0.055665642 0.038996235
000370 0c 76 84 bc 3d 39 e5 3c b4 33 da bb da 07 aa 3c
       -0.01616957 0.027981395 -0.0066589955 0.020755697
000380 f1 f0 5c 3d 6d eb ec bb c0 c4 3b bd f9 58 3c 3d
       0.053940717 -0.0072302134 -0.045841932 0.04598329
000390 c8 d3 44 bd d8 cf 8a bc 52 cc c6 bc 70 a9 30 bd
       -0.048053533 -0.01694481 -0.02426735 -0.04313034
0003a0 76 d0 14 bc 98 08 a4 3c 0f 74 46 bd d1 1f c8 bc
       -0.009082904 0.02002363 -0.048450526 -0.024429234
0003b0 42 35 05 bd d0 90 36 bd 09 2e 38 bd 5f b7 65 3c
       -0.032521494 -0.044571698 -0.044965778 0.01402077
0003c0 2e 78 e4 3c 93 35 92 3b 20 91 8b 3c 5c 62 2e 3d
       0.027889337 0.004461953 0.017036974 0.04257427
0003d0 ae e1 05 bd 2b 82 61 bd 08 35 05 3d fc 5e a7 bc
       -0.032685928 -0.05505578 0.032521278 -0.020431034
0003e0 50 ca a4 bb d1 3e 17 3c 85 d0 4d 3d 50 bb 14 3d
       -0.0050290003 0.009231285 0.050247688 0.036311448
0003f0 3d fa 7b 3d 77 42 d9 bc c0 42 8e bb 0e f9 a2 bc
       0.061517943 -0.02652095 -0.0043414533 -0.01989415

linear2.bias f4 [3]
000000 19 2c 6c 3d e7 91 9c bc 59 b1 5c bd
       0.057659242 -0.01911254 -0.05388007
