model/model.pth (torch, 18176 bytes, 4 tensors)

weight f4 [256, 11]
0.14956777 0.17122874 -0.06307478 0.2836051 -0.15216032 -0.54302156 0.1087477 0.2750964
-0.20061126 -0.13571304 0.16984382 -0.32011497 -0.05127417 -0.004513249 -0.10686932 0.1029645
0.09855455 -0.0038146616 -0.049915493 -0.14698096 -0.08739431 -0.014789214 0.072042905 -0.1765943
0.29870334 -0.28288287 0.1088927 -0.28093228 -0.09104624 -0.17946295 -0.07804373 -0.16870224
-0.29179403 -0.09931406 0.25699928 0.09785843 -0.21101594 -0.19536817 -0.036443155 -0.082445696
-0.15892687 0.11575819 0.100265026 -0.03821306 0.07897525 0.12647447 -0.13498588 0.42459795
0.10414872 -0.45954975 -0.03396801 0.38597053 -0.45092314 -0.15666363 0.2862555 -0.2921724
-0.23526111 0.14526683 -0.08067159 0.032259915 0.22137117 0.19613613 0.060435094 0.07140384
0.091673456 -0.14775656 -0.22496134 -0.098615535 0.026455702 -0.3499662 -0.30598783 -0.2875472
-0.12564774 -0.19945669 0.06692676 0.15676203 -0.077720135 0.21541467 0.279004 -0.04771481
0.14344831 -0.3662839 -0.3774007 0.11055752 -0.28076345 0.0163677 -0.29077092 -0.24543896
-0.30574974 -0.14894663 0.17086565 -0.07297225 0.20098081 -0.036815915 -0.19679844 -0.20997708
0.105258346 0.08179007 0.0073516006 -0.05989432 0.15413438 -0.25399184 0.2642183 -0.24354823
-0.26385176 -0.015880661 -0.36631596 0.02274621 0.12969877 0.09286515 -0.16898906 0.07915167
-0.07331223 0.06759204 -0.3122001 -0.056188863 0.0818743 0.07316624 0.041165356 -0.43356675
-0.30692124 -0.16670522 -0.13155724 0.13799153 -0.21876459 -0.14943035 0.1786482 -0.025746405
-0.027780417 -0.049811978 0.14714755 0.13306817 0.25011513 0.27812284 0.10855132 0.3858722
0.22830085 -0.029163776 -0.004250847 0.21520333 -0.254496 -0.29668966 0.12394646 -0.16416688
0.024000116 0.011374579 -0.23033719 -0.18894652 -0.1917474 -0.09100878 0.14948454 -0.40320262
-0.22770648 -0.07704034 0.10939056 0.3180526 -0.29770762 0.23685212 -0.017146692 -0.3834248
-0.26734862 0.3330638 0.04996269 -0.17946829 -0.31527972 -0.310738 -0.022654017 -0.0666161
-0.28857684 -0.1511078 0.08557765 -0.17867015 0.13001153 0.093633994 -0.15735723 -0.28895873
-0.16682254 0.2576824 0.11515896 -0.13351278 -0.29531884 -0.13361405 -0.25680566 -0.27604595
-0.34785005 -0.10508171 -0.092446566 -0.34297097 -0.11277087 0.05754005 -0.14101918 -0.3085867
0.034442108 -0.2908947 0.012266127 -0.3811155 0.07021667 -0.017339213 -0.20804371 0.17386357
-0.28171077 -0.13892365 -0.08925926 0.08593834 0.13771734 -0.09282692 -0.015484678 -0.0100246295
-0.22381154 -0.31660444 -0.16158809 0.13888688 0.046059925 -0.18512376 -0.084335074 0.112991944
-0.113242924 -0.05681136 -0.2601791 -0.051776364 -0.28233388 -0.019826384 -0.1479859 -0.35168257
0.08176593 -0.2398703 0.10097923 -0.03754066 -0.175804 -0.40636474 -0.073253766 0.115621485
0.20156474 0.0023313628 -0.053267922 0.00847381 -0.25281182 0.00050299347 0.08980832 0.046540886
-0.40110263 0.031192811 0.15864474 0.3818273 0.10041934 0.12742035 -0.0145307975 -0.11332538
-0.3461079 0.043631636 -0.25262675 0.33809814 0.3443786 -0.04824828 -0.014204044 -0.2509253
00000000: 4b28 193e 9656 2f3e 5a2d 81bd b034 913e
00000010: eacf 1bbe 7603 0bbf 1db7 de3d 6fd9 8c3e
00000020: 0a6d 4dbe 5cf8 0abe 8aeb 2d3e 1ce6 a3be
00000030: dd04 52bd e0e3 93bb 4dde dabd 0ddf d23d
00000040: f8d6 c93d 67ff 79bb 3074 4cbd 2d82 16be
00000050: cafb b2bd 764e 72bc 3b8b 933d 23d5 34be
00000060: a5ef 983e 06d6 90be 2303 df3d 5bd6 8fbe
00000070: 7376 babd 23c5 37be 64d5 9fbd 48c0 2cbe
00000080: 0766 95be 2b65 cbbd 6995 833e 006a c83d
00000090: 9014 58be 980e 48be 6b45 15bd 4ad9 a8bd
000000a0: babd 22be a112 ed3d c057 cd3d 4c85 1cbd
000000b0: c7bd a13d 8682 013e bd39 0abe e764 d93e
000000c0: ed4b d53d 1b4a ebbe 0a22 0bbd ee9d c53e
000000d0: 66df e6be 6e6c 20be 1590 923e 9f97 95be
000000e0: 4ae8 70be d4c0 143e 2637 a5bd f922 043d
000000f0: 20af 623e e9d7 483e ca8a 773d 2d3c 923d
00000100: 4bbf bb3d 7f4d 17be 445c 66be f1f6 c9bd
00000110: a1b9 d83c c52e b3be 70aa 9cbe 6339 93be
00000120: cda9 00be 603e 4cbe e610 893d 3a86 203e
00000130: bc2b 9fbd aa95 5c3e 9dd9 8e3e 9b70 43bd
00000140: 1de4 123e 9089 bbbe aa3a c1be fb6b e23d
00000150: 3ac0 8fbe 8e15 863c eddf 94be 5a54 7bbe
00000160: 3b8b 9cbe 7785 18be 68f7 2e3e 7a72 95bd
00000170: eacd 4d3e 49cc 16bd 8885 49be 3b04 57be
00000180: b091 d73d 8d81 a73d b2e5 f03b bf53 75bd
00000190: 67d5 1d3e 380b 82be 9f47 873e b564 79be
000001a0: 9417 87be 2918 82bc c48d bbbe 4356 ba3c
000001b0: c1cf 043e 1530 be3d 780b 2dbe 451a a23d
000001c0: b924 96bd b26d 8a3d b1d8 9fbe 4b26 66bd
000001d0: b7ad a73d 2ed8 953d 019d 283d 76fc ddbe
000001e0: c824 9dbe c6b4 2abe f1b6 06be a74d 0d3e
000001f0: d303 60be 4504 19be 8eef 363e 20ea d2bc
00000200: c293 e3bc a507 4cbd d9ad 163e 0643 083e
00000210: 170f 803e 1e66 8e3e 2850 de3d 0a91 c53e
00000220: b3c7 693e dfe8 eebc b04a 8bbb 435e 5c3e
00000230: 4d4d 82be b5e7 97be a4d7 fd3d 5d1b 28be
00000240: e49b c43c 715c 3a3c 83dd 6bbe 327b 41be
00000250: 6e59 44be d062 babd 7a12 193e 9370 cebe
00000260: e32b 69be 53c7 9dbd 2808 e03d cad7 a23e
00000270: 226d 98be 5d89 723e 3877 8cbc 4150 c4be
00000280: ebe1 88be 5787 aa3e ada5 4c3d 89c6 37be
00000290: 586c a1be 0d19 9fbe eb94 b9bc 066e 88bd
000002a0: 58c0 93be 01bc 1abe 5643 af3d 4ff5 36be
000002b0: be21 053e 2ec3 bf3d 4122 21be 66f2 93be
000002c0: 87d3 2abe f3ee 833e 76d8 eb3d 93b7 08be
000002d0: 0834 97be 1fd2 08be 087c 83be e555 8dbe
000002e0: 6719 b2be 1435 d7bd a054 bdbd e499 afbe
000002f0: 6af4 e6bd 1eaf 6b3d 5567 10be 13ff 9dbe
00000300: 2b13 0d3d 26f0 94be def7 483c 9221 c3be
00000310: c2cd 8f3d f70a 8ebc 6909 55be 4b09 323e
00000320: 653c 90be 0042 0ebe 8fcd b6bd 7100 b03d
00000330: c605 0d3e 0a1c bebd 72b3 7dbc 583e 24bc
00000340: da2e 65be fa19 a2be 5977 25be 5d38 0e3e
00000350: 55a9 3c3d 1591 3dbe deb7 acbd 5268 e73d
00000360: e8eb e7bd 07b3 68bd 3236 85be 7413 54bd
00000370: 118e 90be f16a a2bc 9e89 17be bd0f b4be
00000380: e574 a73d 8fa0 75be 33ce ce3d 3cc4 19bd
00000390: f705 34be 0a0f d0be 1206 96bd f5ca ec3d
000003a0: fd66 4e3e c7c9 183b 772f 5abd bcd5 0a3c
000003b0: 8d70 81be 52db 033a 6ded b73d a8a1 3e3d
000003c0: 535d cdbe 1188 ff3c c473 223e de7e c33e
000003d0: a8a8 cd3d 7b7a 023e 9512 6ebc 2317 e8bd
000003e0: 0e35 b1be 16b7 323d 4b58 81be 331b ad3e
000003f0: 6452 b03e fd9f 45bd 14b8 68bc 4879 80be

bias f4 [256]
-0.110660695 -0.0022910556 -0.083544545 -0.17919296 -0.19196421 -0.39241576 0.10214767 -0.02179456
0.19171256 -0.25724328 -0.0486608 -0.35784462 0.16257142 -0.18054932 0.15538436 -0.36034274
-0.112399325 0.005052391 -0.2675816 -0.3887931 -0.027149064 0.015924484 0.1362686 -0.21807216
-0.35487235 -0.30166268 -0.08634832 -0.13240194 0.09287817 -0.38380232 -0.44021294 -0.2390991
-0.28488833 -0.27965236 -0.5023168 -0.18278843 0.020293532 -0.33736092 -0.4078886 -0.24109061
-0.4091331 -0.28764483 -0.23892374 0.44608656 -0.1886994 -0.13626117 -0.21696314 -0.46474183
0.066966034 -0.21496104 -0.4393391 -0.044806305 -0.3504502 -0.15041958 -0.25171116 -0.36256486
-0.34907255 -0.034922175 -0.1912911 -0.20306362 -0.091981106 0.13796732 -0.0984052 -0.4172855
-0.2628679 -0.2898235 -0.29369584 -0.25519451 -0.42576256 0.22679068 -0.14426483 -0.306388
-0.0437247 -0.24502014 -0.1999545 0.0054371487 -0.010184613 -0.0013573417 -0.26120102 -0.11006281
-0.31752887 -0.35024408 -0.3820375 -0.31434545 -0.20061563 -0.30662066 -0.0008787494 0.05132176
0.13234444 0.20566991 -0.26107413 -0.12822112 0.0067716013 0.08292316 -0.3208533 -0.25474194
-0.086349025 -0.409829 0.054742176 -0.007340106 -0.09077883 -0.028091723 0.05178407 -0.14449899
0.12656684 -0.1295361 -0.20327404 -0.040283773 -0.44591543 -0.3816176 0.1175908 0.017894544
-0.31275362 0.059674773 -0.29586795 0.11298854 -0.29030958 0.07801582 0.13479409 0.10122128
-0.123679094 -0.08356888 -0.06613267 -0.112728134 -0.109519586 0.063084975 -0.280196 -0.21853274
0.08127282 -0.010396366 -0.2717133 0.07795246 -0.29614738 -0.14677049 -0.042932972 0.15505734
-0.17638263 0.106856674 -0.026438272 0.19173615 -0.2316495 -0.049466703 -0.3544734 -0.24973188
0.0315607 -0.12444776 -0.22184116 -0.018361403 -0.15324439 -0.12781617 0.05024778 -0.24390832
-0.12145939 0.0011476206 -0.056988493 -0.43747908 0.06385041 -0.39947698 -0.35765052 -0.3867572
-0.20781282 -0.29911363 -0.41100737 -0.030519133 -0.29159138 -0.43079796 0.10620613 0.028593393
-0.12956561 -0.25190938 -0.3696578 -0.1481322 -0.08783437 0.0047342507 -0.35352832 -0.5073178
-0.35063514 -0.2848339 -0.43954104 -0.34524044 -0.26807317 -0.059343938 0.03149508 -0.05459229
-0.2743048 -0.23771158 -0.49547005 -0.30437776 -0.1485444 0.05877299 -0.17733489 -0.26402327
-0.36690655 -0.33105683 -0.19844903 -0.3853989 -0.38450205 0.13913144 -0.20774779 -0.22657993
-0.31577396 0.14722243 -0.16103028 0.20223315 -0.25334215 -0.058788 -0.29279736 -0.41066566
0.037550732 0.0039882585 0.2030365 -0.2863131 -0.28997946 0.032590285 -0.18666501 0.34021154
-0.2815039 0.018848145 0.029473549 -0.04945642 -0.18487689 0.054958574 -0.42717612 -0.1670208
-0.3583998 -0.31674817 0.21747826 -0.39530694 -0.29449877 -0.29748583 -0.013864101 -0.2658418
0.017459108 -0.24304435 -0.2970858 -0.23676711 0.030411659 -0.09905036 -0.28607234 -0.31628886
-0.099509895 -0.1418485 -0.05652934 -0.4709633 -0.26549616 0.12793338 -0.12572251 -0.112528436
-0.26554635 -0.31368622 -0.1117301 -0.0566991 -0.07295201 -0.16164812 -0.23551431 -0.18857087
00000000: 13a2 e2bd 8925 16bb 6719 abbd 5c7e 37be
00000010: 4492 44be b8ea c8be cc32 d13d 818a b2bc
00000020: 4c50 443e 64b5 83be 8c50 47bd 6937 b7be
00000030: 1f79 263e ece1 38be 141d 1f3e d87e b8be
00000040: 9e31 e6bd 878e a53b 7500 89be e40f c7be
00000050: b767 debc 1074 823c ff89 0b3e 4f4e 5fbe
00000060: d4b1 b5be 8873 9abe 63d7 b0bd 6094 07be
00000070: e936 be3d bd81 c4be 9763 e1be 65d6 74be
00000080: e2dc 91be 982e 8fbe d597 00bf e42c 3bbe
00000090: 9f3e a63c 92ba acbe c6d6 d0be 75e0 76be
000000a0: e579 d1be 2f46 93be 6da8 74be 7565 e43e
000000b0: 6a3a 41be 0c88 0bbe 962b 5ebe a4f2 edbe
000000c0: 7d25 893d bf1e 5cbe 0ef1 e0be d186 37bd
000000d0: 356e b3be 9707 1abe 49e0 80be 1aa2 b9be
000000e0: a3b9 b2be 8e0a 0fbd d0e1 43be e9ef 4fbe
000000f0: 9760 bcbd 4e47 0d3e aa88 c9bd 72a6 d5be
00000100: 9f96 86be bf63 94be 4d5f 96be dba8 82be
00000110: 8dfd d9be d13b 683e 29ba 13be e3de 9cbe
00000120: ac18 33bd 8fe6 7abe dfc0 4cbe 1c2a b23b
00000130: 5ddd 26bc d4e8 b1ba 24bc 85be 9c68 e1bd
00000140: 2593 a2be 3153 b3be 6b9a c3be e3f1 a0be
00000150: 2f6e 4dbe 62fd 9cbe e05b 66ba c436 523d
00000160: 4d85 073e 229b 523e 82ab 85be 664c 03be
00000170: 4fe4 dd3b 9ed3 a93d e246 a4be 896d 82be
00000180: c2d7 b0bd 1bd5 d1be 5539 603d 4685 f0bb
00000190: 40ea b9bd 9d20 e6bc 881b 543d 8bf7 13be
000001a0: bd9a 013e 1da5 04be 1227 50be 9900 25bd
000001b0: 074f e4be 6263 c3be 72d3 f03d 9497 923c
000001c0: 3e21 a0be 896d 743d 017c 97be 8966 e73d
000001d0: 75a3 94be c2c6 9f3d 7607 0a3e 1a4d cf3d
000001e0: 774b fdbd 2926 abbd 9170 87bd 02de e6bd
000001f0: ce4b e0bd b232 813d da75 8fbe 0cc7 5fbe
00000200: 5d72 a63d 8555 2abc 011e 8bbe 8aa5 9f3d
00000210: a1a0 97be 014b 16be 7cda 2fbd 5ac7 1e3e
00000220: a69d 34be acd7 da3d 1395 d8bc 7b56 443e
00000230: 8735 6dbe 999d 4abd 8a7d b5be b7b9 7fbe
00000240: cb45 013d 78de febd 542a 63be a76a 96bc
00000250: 19ec 1cbe 3ee2 02be 9ed0 4d3d 1ac3 79be
00000260: b3bf f8bd c26b 963a c46c 69bd 42fd dfbe
00000270: 01c4 823d 3f88 ccbe f81d b7be 0a05 c6be
00000280: e2cc 54be 6c25 99be 8f6f d2be 4303 fabc
00000290: 774b 95be 8d91 dcbe 9982 d93d b13c ea3c
000002a0: d9ac 04be 44fa 80be ca43 bdbe f8af 17be
000002b0: 82e2 b3bd c621 9b3b aa01 b5be 94df 01bf
000002c0: 7386 b3be c0d5 91be 860b e1be 5bc3 b0be
000002d0: e340 89be a112 73bd fc00 013d 2a9c 5fbd
000002e0: ae71 8cbe aa6a 73be 40ae fdbe 67d7 9bbe
000002f0: 061c 18be f2bb 703d 4797 35be 0f2e 87be
00000300: 2ddb bbbe 4880 a9be 3936 4bbe 0153 c5be
00000310: 74dd c4be 7978 0e3e d6bb 54be 9204 68be
00000320: 20ad a1be 7ac1 163e 1fe5 24be 3516 4f3e
00000330: 10b6 81be b0cb 70bd 89e9 95be c542 d2be
00000340: ccce 193d f0af 823b cde8 4f3e a197 92be
00000350: 3078 94be 647d 053d 1d25 3fbe 3530 ae3e
00000360: 4721 90be 6d67 9a3c 8372 f13c d192 4abd
00000370: 5e50 3dbe 3e1c 613d d4b6 dabe 8007 2bbe
00000380: 2e80 b7be d12c a2be 9fb2 5e3e ac65 cabe
00000390: 8bc8 96be 1050 98be 4126 63bc 6b1c 88be
000003a0: 6706 8f3c 9ee0 78be a11b 98be 1473 72be
000003b0: df21 f93c eada cabd 1378 92be 9df0 a1be
000003c0: d8cb cbbd bc40 11be 4f8b 67bd 1a22 f1be
000003d0: 1def 87be f800 033e 67bd 00be 4f75 e6bd
000003e0: b1f5 87be 7b9b a0be c0d2 e4bd 513d 68bd
000003f0: dd67 95bd 1687 25be aa2a 71be b918 41be

weight f4 [3, 256]
-0.14923067 0.030495323 0.061910555 0.0105049005 -0.21704668 -0.051487707 -0.01113585 -0.045194805
-0.098912425 -0.03759834 0.015229672 -0.030078923 -0.15948257 -0.1247528 -0.058995698 0.012273982
0.0018163756 -0.035822924 -0.01477401 0.046664737 -0.10211353 -0.0814597 -0.14530014 0.007642338
-0.106002755 -0.05547687 -0.15276122 0.05455979 -0.028182982 -0.05647917 0.045989085 -0.037437394
-0.0791278 0.062331855 -0.07684902 -0.025859663 -0.03898949 -0.014656927 0.04529895 -0.11925977
0.0332889 0.25461298 -0.101081096 -0.12877142 0.111093566 -0.14911778 -0.0765477 -0.057126977
-0.10310017 -0.0455044 -0.04013862 0.05629206 -0.01877983 -0.06105084 0.06786796 0.016484367
-0.008359056 0.03377838 -0.004960462 0.10922379 0.0018418729 0.13813265 0.00025899708 0.02942115
0.012953706 0.0017995909 0.045716442 -0.000979729 0.16142756 -0.089359395 0.0047041625 -0.023077086
-0.08934082 -0.08975587 0.019786136 0.037814148 -0.06689517 0.013393011 0.060891986 -0.04684082
0.03865507 -0.092747204 0.001703471 0.08887469 0.097402215 0.0070463987 -0.10653592 -0.15359883
-0.16624264 -0.0043529393 -0.0063777943 -0.055464648 0.066424966 0.07596285 0.061868344 -0.07876286
-0.027658775 -0.0014086264 0.084770516 -0.089399956 0.023837058 -0.04207171 -0.14039326 -0.10934442
0.046944216 -0.11957258 0.0059172073 -0.10211441 -0.015272836 0.021527892 -0.07610307 -0.13290311
-0.08918851 0.003564692 -0.13526344 0.04341918 -0.15611306 0.021102924 -0.12684835 0.04389599
-0.1100637 -0.027191276 0.02289517 -0.079486944 -0.05857087 -0.022369586 0.12891445 -0.011806152
0.03308483 -0.02729857 0.41998172 0.011782937 -0.017263034 -0.13049802 -0.010398672 -0.1102891
-0.12676577 -0.07872981 -0.114636004 0.14389713 -0.08397739 -0.009257075 0.13287844 0.12820533
-0.13045472 0.029433662 -0.019070588 -0.010778925 -0.043014944 -0.0600657 -0.12080201 0.22210851
-0.02534696 0.07912826 -0.07567181 -0.031908453 -0.077989854 -0.1352851 0.031616017 -0.006482961
0.020308247 -0.1628005 -0.13023078 0.043246463 0.00469272 -0.044806086 -0.13520107 0.07758156
-0.07655083 0.02975179 -0.0045807455 0.046640486 -0.003813122 -0.05128574 -0.021710666 0.029283524
-0.06901736 -0.03081163 0.015359204 -0.004039854 0.021867448 0.009602945 -0.006207058 0.015351372
0.025572162 -0.044077594 -0.053904742 0.017267808 0.010924669 -0.03907807 0.07407011 -0.0297511
-0.03510058 -0.0026775482 -0.039523233 0.093598 -0.117399834 -0.12971903 0.050247557 0.037023667
-0.034948975 -0.07543451 -0.06023238 -0.093008004 0.0352386 -0.13512065 -0.08589375 0.045866087
-0.042684797 0.00026985674 0.20587686 0.004759249 0.12377167 -0.09554071 -0.04147801 -0.047146324
0.03798278 -0.0336317 -0.041381627 -0.03956369 0.066007905 -0.082003094 -0.015812466 0.08799365
-0.08759637 -0.026474211 -0.0021792662 -0.027821094 0.056138642 0.025739318 -0.030350804 -0.043506112
0.185243 0.06855238 0.052162193 -0.09936881 -0.12412621 -0.069061205 -0.06201798 -0.08012575
-0.05343394 -0.026393212 -0.006935113 -0.11427497 -0.040090624 -0.102003284 -0.17053655 -0.04670542
0.030656839 0.098759934 -0.04062353 -0.045496497 -0.12289325 0.023413962 0.013313827 0.07165029
00000000: edcf 18be 54d1 f93c ec95 7d3d bf1c 2c3c
00000010: 7c41 5ebe c6e4 52bd 2473 36bc 301e 39bd
00000020: 9992 cabd b800 1abd e085 793c 1368 f6bc
00000030: 664f 23be 657e ffbd 79a5 71bd d018 493c
00000040: 7413 ee3a 0fbb 12bd b00e 72bc 8623 3f3d
00000050: e620 d1bd 58d4 a6bd 8fc9 14be 946c fa3b
00000060: f917 d9bd b73b 63bd 706d 1cbe 167a 5f3d
00000070: ffdf e6bc b456 67bd 0d5f 3c3d f457 19bd
00000080: c20d a2bd b04f 7f3d 0563 9dbd a5d7 d3bc
00000090: 72b3 1fbd 9c23 70bc 648b 393d 773e f4bd
000000a0: f159 083d a25c 823e 9b03 cfbd a8dc 03be
000000b0: 0685 e33d 55b2 18be 0ac5 9cbd fafd 69bd
000000c0: 2f26 d3bd d262 3abd 6568 24bd 8192 663d
000000d0: 28d8 99bc 7210 7abd 5bfe 8a3d 390a 873c
000000e0: 6cf4 08bc 335b 0a3d 5f8b a2bb b9b0 df3d
000000f0: 006b f13a a572 0d3e 00ca 8739 a004 f13c
00000100: c83b 543c 40e0 eb3a 2a41 3b3d 406a 80ba
00000110: 444d 253e 0f02 b7bd 6025 9a3b 280c bdbc
00000120: 52f8 b6bd edd1 b7bd 8916 a23c 02e3 1a3d
00000130: 5600 89bd 5c6e 5b3c e069 793d 29dc 3fbd
00000140: c754 1e3d 3ff2 bdbd 0047 df3a ef03 b63d
00000150: d07a c73d 7ae5 e63b 812f dabd 0349 1dbe
00000160: 833b 2abe 1aa3 8ebb d1fc d0bb e62e 63bd
00000170: d009 883d 6992 9b3d a969 7d3d 6c4e a1bd
00000180: a894 e2bc a9a1 b8ba 2a9c ad3d 5317 b7bd
00000190: ef45 c33c 6353 2cbd 40c3 0fbe f8ef dfbd
000001a0: 9448 403d 78e2 f4bd 22e5 c13b 5c21 d1bd
000001b0: eb3a 7abc 435b b03c eddb 9bbd c117 08be
000001c0: 77a8 b6bd 9c9d 693b 8082 0abe 4fd8 313d
000001d0: 1adc 1fbe 0ae0 ac3c 89e4 01be 48cc 333d
000001e0: 1469 e1bd 3dc0 debc a78e bb3c 0dca a2bd
000001f0: 02e8 6fbd 6c40 b7bc 2602 043e 976e 41bc
00000200: f583 073d 40a1 dfbc d807 d73e 380d 413c
00000210: 356b 8dbc 46a1 05be 315f 2abc 40df e1bd
00000220: e3ce 01be 183d a1bd 48c6 eabd c559 133e
00000230: 56fc abbd fdaa 17bc 4911 083e 4248 033e
00000240: ec95 05be dd1e f13c ec39 9cbc 179a 30bc
00000250: 7030 30bd 7407 76bd 0b67 f7bd 6a70 633e
00000260: 6ea4 cfbc ff0d a23d d2f9 9abd 70b2 02bd
00000270: 25b9 9fbd 2d88 0abe cc7f 013d 056f d4bb
00000280: 7b5d a63c 2db5 26be 385b 05be 3423 313d
00000290: 63c5 993b 9686 37bd 2672 0abe 15e3 9e3d
000002a0: aec6 9cbd 07ba f33c 141a 96bb 180a 3f3d
000002b0: 92e5 79bb ff10 52bd 91da b1bc 00e4 ef3c
000002c0: f958 8dbd ac68 fcbc 2ca5 7b3c c060 84bb
000002d0: 5d23 b33c ac55 1d3c 9464 cbbb 5284 7b3c
000002e0: b67c d13c b58a 34bd 38cb 5cbd 3875 8d3c
000002f0: 62fd 323c 5410 20bd 12b2 973d 94b8 f3bc
00000300: a0c5 0fbd ce79 2fbb 1de3 21bd 4fb0 bf3d
00000310: 536f f0bd 11d5 04be 62d0 4d3d 21a6 173d
00000320: a826 0fbd 697d 9abd 3ab6 76bd fb7a bebd
00000330: 5a56 103d 115d 0abe 10e9 afbd 14de 3b3d
00000340: 41d6 2ebd 8f7b 8d39 62d1 523e 79f3 9b3b
00000350: 007c fd3d d9aa c3bd d9e4 29bd 811c 41bd
00000360: d593 1b3d 65c1 09bd c87f 29bd 890d 22bd
00000370: 272f 873d 3df1 a7bd 2589 81bc 0436 b43d
00000380: ba65 b3bd 72e0 d8bc 05d2 0ebb 10e9 e3bc
00000390: a2f1 653d 43db d23c 40a2 f8bc 7733 32bd
000003a0: 57b0 3d3e 3165 8c3d 06a8 553d e081 cbbd
000003b0: e235 febd f66f 8dbd 9106 7ebd f818 a4bd
000003c0: 8cdd 5abd 9436 d8bc f23f e3bb ff08 eabd
000003d0: 1136 24bd 19e7 d0bd 22a1 2ebe 2f4e 3fbd
000003e0: 0d24 fb3c a642 ca3d dc64 26bd 895a 3abd
000003f0: 75af fbbd a3ce bf3c 3d22 5a3c 63bd 923d

bias f4 [3]
-0.16068368 -0.21205786 -0.07329048
00000000: 438a 24be b225 59be 5219 96bd
